AOD-Net/snapshots/dehazer.pth (torch, 10375 bytes, 10 tensors)

e_conv1.weight f4 [3, 3, 1, 1]
0.023496212 0.11485094 0.18335228 0.025333099 0.10513698 0.13572049 0.034557283 0.17829295
0.20378467
00000000: 217b c03c f836 eb3d b3c0 3b3e 5c87 cf3c
00000010: 0f52 d73d 50fa 0a3e f08b 0d3d 6d92 363e
00000020: eeac 503e

e_conv1.bias f4 [3]
0.20697989 0.41122308 0.37008435
00000000: 89f2 533e d58b d23e b27b bd3e

e_conv2.weight f4 [3, 3, 3, 3]
-1.4957617e-22 -1.5976891e-22 -1.5347357e-22 -1.5445585e-22 -1.6930906e-22 -1.7004288e-22 -1.5404468e-22 -2.7309325e-22
-1.9828389e-22 -2.406148e-21 -2.431444e-21 -2.4067668e-21 -2.4091845e-21 -2.411936e-21 -2.410742e-21 -2.4086292e-21
-2.4126972e-21 -2.4092784e-21 -2.6795155e-21 -2.6802072e-21 -2.6765753e-21 -2.6827626e-21 -2.6839335e-21 -2.681579e-21
-2.6819027e-21 -2.6846268e-21 -2.6847005e-21 -9.842341e-21 -8.279602e-21 -8.304689e-21 -9.213185e-21 -8.278847e-21
-8.409739e-21 -9.645977e-21 -8.74927e-21 -9.0420955e-21 -1.9644075e-15 -1.8338638e-15 -1.8397035e-15 -1.9416092e-15
-1.889798e-15 -1.7558693e-15 -1.932399e-15 -1.913119e-15 -1.8214158e-15 -5.761942e-14 -5.368615e-14 -5.3810018e-14
-5.5452848e-14 -5.292656e-14 -5.255686e-14 -5.6863904e-14 -5.749042e-14 -5.4996186e-14 0.04556275 0.017688595
0.013618978 -0.0029835312 0.041694596 0.022259107 0.0393384 -0.003109868 0.044854816 0.00066709047
0.0051440587 0.012509674 0.02678367 -0.0062617464 0.02991925 0.016357156 0.017810315 -0.020341663
-0.002929276 -0.023036575 0.010715046 0.017087303 0.041702025 0.0072128945 0.035242513 -0.017509602
0.029575035
00000000: 95d3 349b 1526 419b c589 399b c5b9 3a9b
00000010: 9eae 4c9b b991 4d9b 853a 3a9b 2213 a59b
00000020: e4b5 6f9b accd 359d f8b6 379d a4d9 359d
00000030: 6808 369d a13d 369d 8826 369d aafd 359d
00000040: 5a4c 369d 390a 369d 5e75 4a9d bf82 4a9d
00000050: 7f3c 4a9d 2db4 4a9d d3ca 4a9d 489d 4a9d
00000060: 8ba3 4a9d 3cd8 4a9d a9d9 4a9d a4ea 399e
00000070: b365 1c9e 03df 1c9e 3b08 2e9e 0c62 1c9e
00000080: 01db 1e9e 1535 369e e044 259e e4cc 2a9e
00000090: ec8c 0da7 d124 04a7 8a90 04a7 5ee8 0ba7
000000a0: 9f2c 08a7 250c fda6 783e 0ba7 d1da 09a7
000000b0: 313f 03a7 56bf 81a9 ebc7 71a9 ba56 72a9
000000c0: c8bc 79a9 2b5c 6ea9 efb1 6ca9 cf0b 80a9
000000d0: f974 81a9 49ae 77a9 02a0 3a3d ace7 903c
000000e0: 2222 5f3c 5987 43bb f4c7 2a3d bb58 b63c
000000f0: 4d21 213d edce 4bbb afb9 373d afdf 2e3a
00000100: 7e8f a83b 60f5 4c3c 6d69 db3c 562f cdbb
00000110: 3719 f53c 71ff 853c f0e6 913c 8fa3 a6bc
00000120: 19f9 3fbb 33b7 bcbc 298e 2f3c acfa 8b3c
00000130: becf 2a3d 255a ec3b 745a 103d 4c70 8fbc
00000140: 5847 f23c

e_conv2.bias f4 [3]
-7.372164e-21 -1.4338285e-10 0.11441222
00000000: 9941 0b9e afa6 1daf f450 ea3d

e_conv3.weight f4 [3, 6, 5, 5]
0.040486854 0.009863545 0.017236358 0.022759192 0.028811287 0.044851508 0.010808294 0.022094924
0.040294897 0.05049288 0.0076696198 0.034147233 0.055506874 0.062966704 0.008567598 0.04031785
0.015734013 0.018762823 0.029373722 0.009719295 0.012274136 0.038341627 0.018439634 0.08838526
0.012669791 0.0076144375 0.0118129775 0.0014321924 -0.0019981393 -0.009007391 0.012986318 0.040405013
0.019708743 0.0026853322 0.00629699 -0.01654437 0.04480493 0.0012108318 -0.0016617695 0.012936944
0.018101413 -0.045704346 -0.013271717 0.057443738 0.01572464 0.004561544 -0.014029094 -0.010464843
-0.006391737 -0.022436516 0.04129764 0.027168289 0.006081434 0.08767081 0.05958789 0.024503592
-0.022399507 0.029229006 0.004045063 0.04950657 0.0524236 0.046624098 0.03394507 0.04755045
0.0023107098 0.054514866 0.023268552 0.022683457 0.03853528 0.0101715 0.024066722 0.024096927
0.04611314 -0.0010653388 0.039589234 -4.757076e-22 -4.365431e-22 -1.1818787e-22 -3.6055093e-22 3.8030495e-22
4.453918e-23 -4.6756945e-22 2.0475603e-22 -4.746844e-22 2.7875833e-22 -4.7621677e-22 3.7474086e-22 3.80795e-22
-3.5493175e-22 -4.7278956e-22 -2.9245161e-22 3.5115354e-22 3.566358e-22 -4.7611954e-22 -1.6155678e-22 -4.3451913e-22
-3.7370313e-22 -4.790926e-22 -4.7070904e-22 5.411529e-23 6.2369e-41 1.7658e-41 4.916e-41 4.2427e-41
4.997e-41 6.9006e-41 6.7037e-41 3.8743e-41 2.9836e-41 3.9379e-41 5.6565e-41 6.1605e-41
5.3346e-41 3.6767e-41 6.552e-41 6.8636e-41 6.7075e-41 5.2367e-41 4.5939e-41 5.1726e-41
5.8415e-41 3.564e-41 6.1509e-41 6.4165e-41 6.6419e-41 0.03811607 0.030499086 0.037830763
0.01939575 -0.0016830843 0.0004211658 -0.0065511856 0.004951841 0.009406428 -0.004564748 0.009237334
0.017874332 0.00403939 -5.114746e-06 0.012077543 -0.019641275 -0.004951588 -0.026644448 0.023287231
0.0030505287 0.0043607717 0.014276142 0.02706586 0.033593427 0.028614054 0.024810482 0.018183427
0.04642473 0.05388498 0.0076856147 0.011825039 0.0020143664 0.028520977 0.027654057 0.008943178
0.0067564743 0.03956816 -0.0091707045 0.006218602 0.01946381 0.010367252 0.0347496 0.0046296427
0.026052626 0.02481001 0.039034344 0.01538745 0.014048709 0.018644277 -0.024196586 -0.006884239
-0.012726707 0.021124696 0.008985353 -0.0030406353 0.02342768 -0.009945315 0.009063206 -0.0019614033
-0.0011155969 0.012723598 0.0065207556 0.00270247 -0.006375609 0.013470591 0.032978285 0.0091756135
0.029282557 0.009862861 -0.010662056 0.017801458 -0.0113897575 0.0047758436 0.013964487 -0.004729139
0.025852686 0.008248801 0.0010178302 0.035729744 0.021528205 0.036138784 0.021018196 0.029688593
0.04182205 0.0672655 0.053627905 -0.01545181 0.038821768 0.031206783 0.038334895 0.026236432
0.026074626 0.027822506 0.0010959773 -0.0071880887 0.04346995 0.044486508 0.041548792 0.0518675
0.04774091 -4.3169766e-22 -4.4286984e-22 -7.2849235e-23 -4.240516e-22 -3.330977e-22 -4.4585984e-22 -4.432888e-22
-2.5871462e-22 -4.434141e-22 -2.0907375e-22 -4.3384376e-22 -4.444644e-22 -4.251602e-22 3.3373095e-22 -4.426021e-22
-3.2404407e-22 -3.9986324e-22 -3.2474336e-22 1.7791676e-22 -4.435554e-22 -4.4536643e-22 -4.4296713e-22 2.3853866e-22
1.7477562e-22 -4.4337684e-22 4.2151e-41 4.3314e-41 2.9772e-41 5.1666e-41 2.5323e-41 3.7803e-41
00000000: 8bd5 253d b59a 213c 4333 8d3c 7c71 ba3c
00000010: a605 ec3c 37b6 373d 4515 313c 6a00 b53c
00000020: 430c 253d 9fd1 4e3d 6f51 fb3b f8dd 0b3d
00000030: 2d5b 633d b0f4 803d 1c5f 0c3c 5424 253d
00000040: 9ee4 803c 7eb4 993c 29a1 f03c ae3d 1f3c
00000050: 7519 493c 1c0c 1d3d b70e 973c 5503 b53d
00000060: f494 4f3c 8882 f93b 388b 413c 67b8 bb3a
00000070: 37f3 02bb bc93 13bc 91c4 543c ba7f 253d
00000080: 3b74 a13c 66fc 2f3b fb56 ce3b 0f88 87bc
00000090: 6085 373d c6b4 9e3a bbcf d9ba 7af5 533c
000000a0: 6a49 943c 7b34 3bbd 9e71 59bc 204a 6b3d
000000b0: f6d0 803c 0179 953b 49da 65bc bc74 2bbc
000000c0: c771 d1bb c9cc b7bc b727 293d 0890 de3c
000000d0: c446 c73b c18c b33d 6e12 743d c2bb c83c
000000e0: 2c7f b7bc ab71 ef3c 738c 843b 67c7 4a3d
000000f0: 21ba 563d e9f8 3e3d fc09 0b3d 43c4 423d
00000100: 476f 173b fb4a 5f3d b19d be3c a8d2 b93c
00000110: 2bd7 1d3d 5da6 263c 9327 c53c eb66 c53c
00000120: 22e1 3c3d d7a2 8bba 5228 223d 18c6 0f9c
00000130: e3ef 039c 60e1 0e9b 8ef0 d99b 57e1 e51b
00000140: d660 571a 6f50 0d9c ec88 771b ed76 0f9c
00000150: c37f a81b 7ded 0f9c 5784 e21b 2c2d e61b
00000160: 078b d69b 52e4 0e9c b2c6 b09b 6142 d41b
00000170: b892 d71b f7e5 0f9c 674f 439b 4a53 039c
00000180: c2e3 e19b ffcb 109c 5943 0e9c bed7 821a
00000190: dcad 0000 3931 0000 0a89 0000 4576 0000
000001a0: 4c8b 0000 5cc0 0000 dfba 0000 006c 0000
000001b0: 2c53 0000 c66d 0000 ae9d 0000 bbab 0000
000001c0: b594 0000 7e66 0000 a5b6 0000 54bf 0000
000001d0: faba 0000 fa91 0000 0f80 0000 3190 0000
000001e0: d6a2 0000 5a63 0000 76ab 0000 deb2 0000
000001f0: 26b9 0000 991f 1c3d 38d9 f93c 6ef4 1a3d
00000200: d6e3 9e3c f09a dcba ebcf dc39 54ab d6bb
00000210: 0e43 a23b 6b1d 1a3c e293 95bb 3058 173c
00000220: 316d 923c dc5c 843b 559f abb6 e3e0 453c
00000230: bde6 a0bc ee40 a2bb 7545 dabc ddc4 be3c
00000240: 61eb 473b cee4 8e3b 7be6 693c 39b9 dd3c
00000250: 4399 093d 0568 ea3c 5a3f cb3c 69f5 943c
00000260: dc27 3e3d 7fb6 5c3d 9cd7 fb3b cfbd 413c
00000270: 7603 043b d3a4 e93c c38a e23c 6886 123c
00000280: 6a65 dd3b 3912 223d b940 16bc 6ac5 cb3b
00000290: 9172 9f3c 68db 293c 9955 0e3d 42b4 973b
000002a0: 516c d53c 5d3e cb3c 7ae2 1f3d a51b 7c3c
000002b0: 8e2c 663c e2bb 983c eb37 c6bc 2f95 e1bb
000002c0: ae83 50bc b30d ad3c 4d37 133c 6545 47bb
000002d0: 68eb bf3c adf1 22bc d77d 143c e38a 00bb
000002e0: 3839 92ba a376 503c 10ac d53b ec1b 313b
000002f0: 7cea d0bb c1b3 5c3c 3d14 073d 5055 163c
00000300: f9e1 ef3c d697 213c e7af 2ebc 5dd4 913c
00000310: 1b9c 3abc ae7e 9c3b 4ecb 643c e5f6 9abb
00000320: 03c9 d33c fb25 073c b768 853a 5a59 123d
00000330: eb5b b03c 4306 143d 5a2e ac3c 7e35 f33c
00000340: 994d 2b3d 7fc2 893d efa8 5b3d 9729 7dbc
00000350: 9303 1f3d 5ea5 ff3c 0d05 1d3d c9ed d63c
00000360: 749a d53c 06ec e33c e5a6 8f3a 0f8a ebbb
00000370: 8c0d 323d 7c37 363d 112f 2a3d 0473 543d
00000380: f98b 433d fd78 029c 65d9 059c 7e23 b09a
00000390: 6729 009c 5f58 c99b bcc0 069c cff9 059c
000003a0: 2662 9c9b 8103 069c 31c1 7c9b 091f 039c
000003b0: c454 069c 2d7f 009c 5dba c91b aec4 059c
000003c0: 64df c39b d7b3 f19b 9a4b c49b 9216 571b
000003d0: 700e 069c 8f9a 069c ece0 059c 1230 901b
000003e0: 6f4a 531b 9f00 069c 8075 0000 be78 0000
000003f0: fe52 0000 0690 0000 9746 0000 6169 0000

e_conv3.bias f4 [3]
0.041571412 0.033579078 0.04895105
00000000: c946 2a3d 378a 093d e580 483d

e_conv4.weight f4 [3, 6, 7, 7]
-1.0757627e-22 -1.2402079e-22 -1.8276748e-22 -1.3199713e-22 1.3014764e-22 8.051215e-23 -3.669312e-23 -1.0896938e-22
-1.6203413e-22 -1.3838376e-22 6.5932957e-23 -1.0150139e-22 -1.0701365e-22 -1.3181091e-22 -2.4042385e-23 -9.8328905e-23
5.597975e-23 7.477451e-23 -1.4167571e-22 -1.8567177e-22 -1.1879452e-24 -1.4150916e-22 -8.716525e-24 -1.7585497e-22
-9.613679e-23 -3.0102563e-23 -9.8786546e-23 -1.1457822e-22 -1.1562789e-22 4.3079836e-23 -9.423573e-23 -1.3067254e-22
1.184747e-22 5.806274e-23 -1.0638784e-22 -1.03854895e-22 7.096308e-24 -1.2935197e-22 -1.8691433e-22 -1.3873957e-22
-1.8630354e-22 -1.3488741e-22 -1.4962922e-22 -1.5512713e-25 -9.9551514e-23 -1.872535e-22 -1.8107463e-22 -1.465529e-22
9.546249e-23 3.6802e-41 -3.817e-41 6.3902e-41 -7.697e-42 -4.9271e-41 -7.2814e-41 -6.4007e-41
1.9928e-41 -6.6618e-41 5.8066e-41 1.3574e-41 -2.0351e-41 -7.822e-41 5.8061e-41 3.0687e-41
-6.6884e-41 -5.8258e-41 -7.9291e-41 -2.5918e-41 -7.814e-41 -6.5918e-41 -3.123e-41 -2.6535e-41
-1.2728e-41 -3.92e-43 -4.297e-41 -7.8949e-41 -7.8267e-41 5.779e-42 -3.4845e-41 -6.5438e-41
-7.082e-41 -4.2452e-41 -7.5819e-41 -7.0296e-41 -3.417e-41 -4.2462e-41 -5.362e-41 5.4233e-41
-2.6259e-41 -5.876e-41 -7.456e-42 -7.3043e-41 4.4322e-41 -6.5885e-41 -5.779e-41 -4.151e-41
7.9344e-41 -6.214e-41 -0.0023008443 0.013772558 0.008755402 -0.0010482046 -0.020147111 -0.0046149422
0.025645379 0.009395439 0.0076401876 -0.006126995 0.018280696 -0.021916669 0.0071404967 -0.0034743364
0.040296923 -0.018305268 -0.011576804 -0.00040524077 0.03280071 0.010194298 0.010176498 -0.01333039
0.018640704 0.005049887 0.00785111 0.035486303 0.009965926 -0.017471557 0.024376957 0.008911238
0.03791802 0.007914566 0.0072203027 -0.018496044 -0.0046495735 -0.012088765 -0.016402397 -0.0032121048
0.031569805 0.030530354 0.02096684 0.025202394 0.017394198 0.0011702342 -0.012921565 0.008146802
0.024375202 -0.015241929 0.006507958 0.01361233 0.0041603614 0.015674848 0.035125837 0.059378754
0.03996391 0.03126932 0.0335388 0.022720303 0.006016108 0.01995032 0.024904963 0.012903332
0.036352817 0.048445836 0.009282679 -0.004235298 0.046342142 0.002749209 0.03815369 0.025703082
0.019238492 0.028019605 0.014310446 0.022209007 0.015986623 0.030881869 0.020506892 0.0035411841
-0.0046760235 0.021398157 0.0067217583 -0.002693505 0.0009359868 0.03254156 0.018549 0.0036247345
0.019019466 0.008358763 0.03730877 0.030013124 0.042817965 0.01502466 0.0032599096 0.016089775
0.04044695 -0.0091519 0.0322979 0.025412373 0.009959125 0.010363937 0.030435674 0.002784412
0.052356638 0.050807033 0.014710341 -0.01858274 0.030002046 0.038621392 0.02597877 0.01712123
0.019546576 0.025880454 0.011338822 0.014863222 0.03528066 0.051519476 0.023895798 0.022382163
-0.017794447 -0.0074964855 0.0056981817 0.022320593 0.032172237 0.041619964 0.00011828132 0.023187153
0.0070322 0.058246903 0.0038378385 -0.010029392 -0.0007328072 0.03199371 0.025729967 0.01106755
0.030484788 0.0068849646 -0.015288237 -0.00894355 0.053296033 0.036126453 -0.007923697 -0.0053903027
0.032168776 0.013994221 -0.0026371598 0.009272229 0.011561566 -0.030829428 0.019113561 0.0045746686
0.02235095 0.04526222 0.027181413 -0.021173092 0.037307344 0.04079113 -0.010000909 0.009834933
00000000: 3e0d 029b 93ee 159b ccf3 5c9b 2293 1f9b
00000010: be56 1d1b 9baa c21a e26f 319a 64bc 039b
00000020: 22e3 439b b34b 279b 866a 9f1a 516a f59a
00000030: 1f5f 019b 8059 1f9b 1086 e899 a5be ed9a
00000040: c959 871a 2ecb b41a 8246 2b9b a176 609b
00000050: 5cd3 b797 f712 2b9b 249a 2899 7a98 549b
00000060: ca71 e89a 2b91 119a e9d9 ee9a 3e84 0a9b
00000070: 19c9 0b9b 4152 501a 17d9 e39a 31f9 1d9b
00000080: 253a 0f1b 1863 8c1a 719d 009b 111b fb9a
00000090: 3743 0919 7f60 1c9b 2ff7 619b d1b9 279b
000000a0: 273a 619b a211 239b 00e4 349b c009 4096
000000b0: 67b3 f09a 2760 629b e2e7 5a9b ed2b 319b
000000c0: 6bd0 e61a 9766 0000 676a 0080 22b2 0000
000000d0: 7515 0080 5989 0080 faca 0080 6db2 0080
000000e0: 8d37 0000 b4b9 0080 dda1 0000 d725 0000
000000f0: bb38 0080 0cda 0080 daa1 0000 8b55 0000
00000100: 72ba 0080 66a2 0080 08dd 0080 4048 0080
00000110: d3d9 0080 c1b7 0080 0e57 0080 f849 0080
00000120: 7b23 0080 1801 0080 c877 0080 14dc 0080
00000130: 2dda 0080 1c10 0000 2261 0080 6ab6 0080
00000140: 6bc5 0080 5776 0080 5ad3 0080 f5c3 0080
00000150: 415f 0080 5e76 0080 7995 0080 2e97 0000
00000160: 3349 0080 cda3 0080 c914 0080 9dcb 0080
00000170: 8d7b 0000 a9b7 0080 18a1 0080 b773 0080
00000180: 2edd 0000 39ad 0080 c3c9 16bb 4ca6 613c
00000190: d172 0f3c e963 89ba 8e0b a5bc f138 97bb
000001a0: 4216 d23c 54ef 193c 8a5a fa3b f6c4 c8bb
000001b0: 66c1 953c 968a b3bc d4fa e93b b1b1 63bb
000001c0: 630e 253d eef4 95bc a3ac 3dbc 7f76 d4b9
000001d0: 0a5a 063d fc05 273c 54bb 263c b567 5abc
000001e0: 64b4 983c 8679 a53b f1a1 003c 165a 113d
000001f0: 2048 233c 8320 8fbc 2fb2 c73c 7100 123c
00000200: ed4f 1b3d 19ac 013c 4a98 ec3b 0485 97bc
00000210: 735b 98bb f50f 46bc 525e 86bc 2d82 52bb
00000220: 574f 013d cb1a fa3c a7c2 ab3c 4075 ce3c
00000230: 477e 8e3c 8b62 993a f9b4 53bc 2a7a 053c
00000240: 81ae c73c 49b9 79bc b540 d53b 4006 5f3c
00000250: a453 883b 8a68 803c 1ce0 0f3d 2337 733d
00000260: 32b1 233d 4214 003d fb5f 093d ee1f ba3c
00000270: c622 c53b da6e a33c 7e05 cc3c 7f68 533c
00000280: b1e6 143d 246f 463d 6116 183c 41c8 8abb
00000290: 42d1 3d3d 132c 343b 0b47 1c3d 458f d23c
000002a0: 0b9a 9d3c 5f89 e53c 5c76 6a3c aaef b53c
000002b0: 61f6 823c f9fb fc3c 12fe a73c 3613 683b
000002c0: 5439 99bb 304b af3c 3242 dc3b 8485 30bb
000002d0: 035d 753a 4c4a 053d 13f4 973c f48c 6d3b
000002e0: b6ce 9b3c 31f3 083c 15d1 183d 15de f53c
000002f0: e461 2f3d fe29 763c 35a4 553b b4ce 833c
00000300: b3ab 253d daf1 15bc ce4a 043d 9c2d d03c
00000310: 992b 233c 81cd 293c 3c54 f93c ae7a 363b
00000320: ea73 563d 091b 503d a403 713c d53a 98bc
00000330: dac6 f53c 7731 1e3d 6ed1 d43c d241 8c3c
00000340: 2420 a03c 3f03 d43c 77c6 393c df84 733c
00000350: 7482 103d 1606 533d 1fc1 c33c cc5a b73c
00000360: a9c5 91bc 14a5 f5bb d0b7 ba3b add9 b63c
00000370: 09c7 033d b279 2a3d cd0d f838 fcf2 bd3c
00000380: 5f6e e63b 4e94 6e3d 3f84 7b3b 5252 24bc
00000390: dc19 40ba d60b 033d a7c7 d23c ab54 353c
000003a0: 3cbb f93c 459b e13b 837b 7abc f887 12bc
000003b0: f14c 5a3d 55f9 133d 65d2 01bc 23a1 b0bb
000003c0: 68c3 033d 0448 653c 33d4 2cbb 8cea 173c
000003d0: b96c 3d3c ff8d fcbc 0b94 9c3c 1ae7 953b
000003e0: 5719 b73c e164 393d 8eab de3c 3173 adbc
000003f0: 96cf 183d 9a14 273d dada 23bc b322 213c

e_conv4.bias f4 [3]
-0.012147218 -3.1162726e-06 0.0068570706
00000000: 2005 47bc 2821 51b6 47b1 e03b

e_conv5.weight f4 [3, 12, 3, 3]
0.013133415 0.020398423 0.038193643 0.08891666 0.007064182 0.04284583 -0.00069192314 0.03322182
0.04585266 0.014751617 0.041138597 0.017800545 0.01665833 0.009380356 0.018241918 0.00061110954
-0.008315483 -0.018086523 0.045227468 0.044590443 0.013252016 0.018323436 0.029254597 -0.001824498
0.00709114 0.00070114667 0.068646125 -4.34443e-23 -3.324778e-22 1.6874025e-22 -2.762017e-22 2.5053165e-22
2.464497e-22 -2.7094873e-22 -3.0504282e-22 -2.6461434e-22 -6.554e-42 -6.3319e-41 4.8668e-41 -6.6848e-41
-2.008e-42 2.9199e-41 1.7271e-41 1.1663e-41 2.8759e-41 -0.015197228 -0.023534039 0.038634825
0.005654435 -0.026383054 -0.00886165 0.003240276 0.040570486 0.003602947 0.01960157 0.03862137
-0.00012672321 0.013610583 0.05028484 0.032678217 0.022373587 0.020916212 0.026767645 0.045226067
0.03515691 0.0041110897 0.00666565 -0.029148702 0.014486911 0.010208808 0.03969113 0.0069687325
-0.0018748045 0.0018236992 -0.028871534 0.056693863 0.024173157 0.033584148 0.005773902 0.011250711
0.06477217 0.01042107 0.03807796 -0.028493332 0.028344851 0.048291247 0.042484157 -0.02747445
0.0024949438 0.038647357 -7.4912925e-05 -0.00020064454 -6.486364e-05 1.4352998e-05 -8.8582725e-05 -0.00021856806
2.7121652e-05 -0.0004564301 -8.816653e-05 0.007576336 0.0015654167 0.0370893 0.004053804 0.018300105
0.025272632 0.016221622 0.003998892 7.0294765e-05 0.0187868 0.04982483 0.009955138 -0.0026635153
0.026673313 0.010819646 0.042676378 0.013690925 0.054718047 -0.03435444 0.002082717 0.0060820575
-0.004025404 -0.0015922406 0.014557981 0.0130631365 -0.012270208 0.014694949 0.010730835 0.03397512
0.04501403 0.059699535 -0.02664285 0.015632471 0.027309418 0.009441348 0.028670503 -5.305541e-22
3.2937712e-22 -5.3030093e-22 -3.0451755e-22 -1.7687957e-22 -5.3079075e-22 -5.2759926e-22 -5.2744573e-22 -5.3079393e-22
1.6348e-41 1.1458e-41 -2.4175e-41 2.0411e-41 1.0885e-41 3.85e-42 2.1001e-41 -6.705e-42
7.392e-42 0.02811176 0.0016403231 -0.03938455 -0.022293687 0.038770504 0.022940034 0.017946268
-0.008719417 -0.024935208 -0.008010131 0.023757702 0.0048964103 0.030227173 -0.01576982 0.029891914
0.0103448415 0.025775524 -0.010270753 -0.007156966 0.008384429 -0.008454133 0.0042113997 0.013523939
-0.006265676 0.0071106646 0.034537174 0.0035995394 -0.011769809 0.03023212 0.016937273 0.029122096
-0.005249508 0.02289041 -0.0031523143 0.050798785 0.0011117791 0.045769934 0.010610141 0.023412744
-0.004785551 0.011908603 0.03363506 0.044626273 0.027378889 0.0016619317 -0.0001938865 -0.00019047037
-0.000106729145 -0.00019163123 -0.00097075925 -0.00015038431 -0.0001860423 -0.00019142331 -0.00020102231 0.021067882
0.028309198 -0.010272918 0.025658991 -0.007325053 0.033788823 0.027553111 0.03648685 0.033551633
0.021671785 0.023357958 0.021966066 0.022350393 0.024264924 0.022658607 0.021490622 0.02317731
0.021805892 0.013715113 0.014615318 0.013859674 0.014079883 0.015106275 0.014232535 0.0136265
0.01452729 0.013783654 0.018628886 0.019993352 0.018859565 0.019187266 0.020736603 0.019429399
0.018498484 0.019863287 0.018746516 1.0702626e-22 -1.9961975e-22 -1.9795018e-22 1.2766603e-23 -1.7500543e-22
-1.3516136e-22 -8.915967e-23 -1.1423197e-22 -1.9578344e-22 6.031e-42 6.6815e-41 7.1885e-41 -2.1862e-41
00000000: 892d 573c 981a a73c f070 1c3d f019 b63d
00000010: a77a e73b 1c7f 2f3d 2d62 35ba 9a13 083d
00000020: 00d0 3b3d c4b0 713c f280 283d 73d2 913c
00000030: 0d77 883c 11b0 193c 1370 953c de32 203a
00000040: aa3d 08bc 302a 94bc 7040 393d 78a4 363d
00000050: fc1e 593c 081b 963c 56a7 ef3c fe23 efba
00000060: cb5c e83b 28cd 373a 5796 8c3d 7015 529a
00000070: 73f8 c89b 94fe 4b1b 25f4 a69b e56f 971b
00000080: 3ef8 941b 49c7 a39b 1763 b89b 16f3 9f9b
00000090: 4512 0080 82b0 0080 ab87 0000 58ba 0080
000000a0: 9905 0080 6551 0000 2530 0000 8320 0000
000000b0: 2b50 0000 cbfd 78bc 75ca c0bc 8d3f 1e3d
000000c0: d748 b93b 4621 d8bc 7430 11bc cf5a 543b
000000d0: 3d2d 263d 6c1f 6c3b 7993 a03c 7131 1e3d
000000e0: 01e1 04b9 ecfe 5e3c 7af7 4d3d 98d9 053d
000000f0: d048 b73c 7a58 ab3c d247 db3c f83e 393d
00000100: b100 103d 52b6 863b 866b da3b 42c9 eebc
00000110: 825a 6d3c d842 273c 2b93 223d f759 e43b
00000120: 00bc f5ba 3109 ef3a ff83 ecbc d337 683d
00000130: c906 c63c 888f 093d 0033 bd3b e754 383c
00000140: 45a7 843d 23bd 2a3c a3f7 1b3d d96a e9bc
00000150: 7633 e83c 0bcd 453d de03 2e3d 1912 e1bc
00000160: 3682 233b b14c 1e3d 921a 9db8 1c64 52b9
00000170: 6707 88b8 a8cd 7037 7dc5 b9b8 6b2f 65b9
00000180: 4e83 e337 034d efb9 0ce6 b8b8 ea42 f83b
00000190: ab2e cd3a f3ea 173d c6d5 843b 1aea 953c
000001a0: 8d08 cf3c 35e3 843c 2309 833b 376b 9338
000001b0: c6e6 993c 1f15 4c3d e01a 233c 5f8e 2ebb
000001c0: fe81 da3c e244 313c 6dcd 2e3d e74f 603c
000001d0: 0820 603d 3eb7 0cbd 317e 083b ff4b c73b
000001e0: 89e7 83bb bbb2 d0ba 9984 6e3c c406 563c
000001f0: fc08 49bc 15c3 703c 62d0 2f3c 7f29 0b3d
00000200: a260 383d 8087 743d 1b42 dabc ab0f 803c
00000210: 00b8 df3c e2af 1a3c 67de ea3c a359 209c
00000220: a418 c71b 0c46 209c cf11 b89b 93d5 559b
00000230: f26b 209c 0475 1f9c 2369 1f9c 316c 209c
00000240: 922d 0000 f11f 0000 6443 0080 e638 0000
00000250: 581e 0000 bb0a 0000 8b3a 0000 b112 0080
00000260: 9b14 0000 a24a e63c 1c00 d73a b251 21bd
00000270: 40a1 b6bc d2cd 1e3d bdec bb3c 0d04 933c
00000280: e3db 0ebc ec44 ccbc ed3c 03bc 839f c23c
00000290: 1172 a03b fa9e f73c b62f 81bc e3df f43c
000002a0: 697d 293c 3127 d33c a946 28bc fb84 eabb
000002b0: d85e 093c 3483 0abc c8ff 893b 8393 5d3c
000002c0: 4d50 cdbb 9400 e93b da76 0d3d 40e6 6b3b
000002d0: 28d6 40bc 5aa9 f73c 09c0 8a3c 7691 ee3c
000002e0: 1104 acbb ab84 bb3c 0f97 4ebb 6312 503d
000002f0: 1eb9 913a 4179 3b3d 28d6 2d3c 15cc bf3c
00000300: 1dd0 9cbb 4d1c 433c ebc4 093d 0aca 363d
00000310: b149 e03c 2dd5 d93a 034e 4bb9 00b9 47b9
00000320: c6d3 dfb8 9ef0 48b9 8d7a 7eba 7bb0 1db9
00000330: 5a14 43b9 ceb8 48b9 84c9 52b9 8d96 ac3c
00000340: b1e8 e73c be4f 28bc ce32 d23c 0007 f0bb
00000350: 2666 0a3d 10b7 e13c 3c73 153d 706d 093d
00000360: 0789 b13c 3059 bf3c 2ef2 b33c 2c18 b73c
00000370: 3cc7 c63c 8b9e b93c 1a0d b03c 58de bd3c
00000380: 45a2 b23c 5ab5 603c 1675 6f3c b013 633c
00000390: 4faf 663c 4f80 773c 942f 693c af41 5f3c
000003a0: df03 6e3c d6d4 613c 9b9b 983c 19c9 a33c
000003b0: 607f 9a3c 9d2e 9d3c cfdf a93c 672a 9f3c
000003c0: 228a 973c 55b8 a23c 4b92 993c 0663 011b
000003d0: 5253 719b 9d4e 6f9b 28f1 7619 8f91 539b
000003e0: 6a66 239b 2a93 d79a 1519 0a9b 0ab0 6c9b
000003f0: d010 0000 41ba 0000 63c8 0000 f13c 0080

e_conv5.bias f4 [3]
0.028057434 0.011079034 0.006772002
00000000: b4d8 e53c d684 353c ace7 dd3b
