AOD-Net/snapshots/Epoch3.pth (torch, 10375 bytes, 10 tensors)

e_conv1.weight f4 [3, 3, 1, 1]
0	0x3be90912	0.007111677
1	0x3deb9578	0.11503118
2	0x3e40f699	0.1884407
3	0x3c195176	0.009357801
4	0x3dd5c253	0.10437455
5	0x3e0f6a5d	0.14005418
6	0x3c95f750	0.018306404
7	0x3e3692e1	0.17829467
8	0x3e55c69a	0.20876542

e_conv1.bias f4 [3]
0	0x3e525f7c	0.20544237
1	0x3ed07eff	0.4072189
2	0x3ebc9e54	0.36839545

e_conv2.weight f4 [3, 3, 3, 3]
0	0xba911138	-0.0011067754
1	0xba9198da	-0.0011108175
2	0xba90db9d	-0.0011051778
3	0xba9226f4	-0.0011150525
4	0xba92aae0	-0.0011189841
5	0xba91f218	-0.0011134772
6	0xba929612	-0.001118364
7	0xba935007	-0.001123906
8	0xba9269f3	-0.0011170491
9	0xbaa522fd	-0.0012598928
10	0xbaa5b3a5	-0.0012642039
11	0xbaa51612	-0.0012595078
12	0xbaa5dde0	-0.0012654625
13	0xbaa65bad	-0.0012692116
14	0xbaa5cde0	-0.0012649857
15	0xbaa60ebc	-0.0012669186
16	0xbaa68b1f	-0.0012706256
17	0xbaa5f9eb	-0.0012662982
18	0xbaa23cc5	-0.001237773
19	0xbaa2ce4c	-0.00124211
20	0xbaa218b9	-0.0012366987
21	0xbaa335a6	-0.0012451902
22	0xbaa3c1e4	-0.0012493697
23	0xbaa30def	-0.0012440066
24	0xbaa3840e	-0.0012475268
25	0xbaa40e0e	-0.0012516396
26	0xbaa3591d	-0.0012462471
27	0x000014f7	7.521e-42
28	0x80003eed	-2.2574e-41
29	0x800019fb	-9.32e-42
30	0x80005986	-3.2115e-41
31	0x800022b2	-1.2446e-41
32	0x000017c6	8.528e-42
33	0x80006a1d	-3.8066e-41
34	0x80004d14	-2.765e-41
35	0x80003118	-1.7612e-41
36	0x00022661	1.97439e-40
37	0x0000fa5a	8.9809e-41
38	0x0000977f	5.4347e-41
39	0x0001cd95	1.65584e-40
40	0x0000d556	7.653e-41
41	0x00009325	5.2786e-41
42	0x000253e1	2.13761e-40
43	0x00017e62	1.37173e-40
44	0x0001105b	9.7703e-41
45	0x84823039	-3.060714e-36
46	0x84edc494	-5.589896e-36
47	0x850770d0	-6.36839e-36
48	0x848cb5f5	-3.3080943e-36
49	0x84ee082d	-5.596104e-36
50	0x85044a1d	-6.2202226e-36
51	0x843159b1	-2.0847434e-36
52	0x84c65dee	-4.6635837e-36
53	0x84dfb568	-5.2593643e-36
54	0x3d3775e5	0.044790167
55	0x3c8d265b	0.017230203
56	0x3c590afa	0.013247246
57	0xbb522e5a	-0.0032071085
58	0x3d275c0f	0.04085928
59	0x3cb1d4aa	0.021707851
60	0x3d1de15a	0.03854499
61	0xbb5f6aaf	-0.0034090688
62	0x3d343080	0.043991566
63	0xba009440	-0.00049049035
64	0x3b800923	0.003907339
65	0x3c38267c	0.011239644
66	0x3ccfb673	0.025355553
67	0xbbf3f801	-0.007445336
68	0x3ce917e2	0.028453771
69	0x3c75e70e	0.015008701
70	0x3c866527	0.016405655
71	0xbcaf22af	-0.021378843
72	0xbb714cff	-0.0036819575
73	0xbcc1e4d5	-0.023668686
74	0x3c213985	0.009840374
75	0x3c84053e	0.01611578
76	0x3d25d3dc	0.040485248
77	0x3bcec64d	0.0063102604
78	0x3d0bb0fe	0.03410434
79	0xbc95a31d	-0.018266255
80	0x3ce948f9	0.028477179

e_conv2.bias f4 [3]
0	0xbabb4f5f	-0.0014290622
1	0x9a912ffc	-6.004812e-23
2	0x3de4f035	0.11178628

e_conv3.weight f4 [3, 6, 5, 5]
0	0x3d270609	0.04077724
1	0x3c280217	0.0102544045
2	0x3c8fa0f6	0.017532807
3	0x3cbca9af	0.02303013
4	0x3ceec9ab	0.029148897
5	0x3d389a21	0.045068864
6	0x3c370bcf	0.011172249
7	0x3cb70262	0.022340003
8	0x3d257c21	0.04040158
9	0x3d4f5222	0.050615437
10	0x3c05a829	0.008157768
11	0x3d0c7d56	0.034299217
12	0x3d632bb2	0.055461593
13	0x3d80bf28	0.0628646
14	0x3c137af3	0.009001481
15	0x3d25e3e8	0.04050055
16	0x3c830ed0	0.015998274
17	0x3c9b7e64	0.018981166
18	0x3cf1c047	0.02951063
19	0x3c25b4aa	0.010113874
20	0x3c4f646e	0.012658222
21	0x3d1d39a8	0.038385063
22	0x3c989035	0.01862345
23	0x3db43f19	0.088010974
24	0x3c5567e8	0.013025261
25	0x3beffe46	0.007324013
26	0x3c3a655a	0.011376703
27	0x3a85ca49	0.001020738
28	0xbb1b6c6a	-0.0023715743
29	0xbc17972e	-0.009252353
30	0x3c4f02b2	0.01263492
31	0x3d22f92b	0.039788406
32	0x3c9d1cb8	0.019178733
33	0x3b146032	0.0022640345
34	0x3bc27f61	0.005935595
35	0xbc8943f9	-0.016756045
36	0x3d34d2c7	0.044146325
37	0x3a498f3a	0.0007688884
38	0xbb08271e	-0.0020775269
39	0x3c4d0ba1	0.01251498
40	0x3c90daf3	0.017682528
41	0xbd3be57d	-0.045873154
42	0xbc5f9734	-0.0136468895
43	0x3d682f33	0.056685638
44	0x3c7a4ea9	0.015277543
45	0x3b8a0162	0.0042115906
46	0xbc6bae60	-0.014384836
47	0xbc320b67	-0.010866976
48	0xbbded591	-0.0068003614
49	0xbcb9b6a2	-0.022670094
50	0x3d289d79	0.041165803
51	0x3cdceb04	0.026967533
52	0x3bc320df	0.0059548463
53	0x3db27435	0.08713571
54	0x3d72e9dc	0.059305057
55	0x3cc81d7e	0.024428125
56	0xbcb726f2	-0.022357438
57	0x3ced5518	0.02897124
58	0x3b80c329	0.003929515
59	0x3d49b4d1	0.049244706
60	0x3d55b642	0.052175768
61	0x3d3d9a30	0.046289623
62	0x3d09d56a	0.033650793
63	0x3d414a59	0.047190044
64	0x3b14d438	0.00227095
65	0x3d5e225e	0.054231994
66	0x3cbcacac	0.023031555
67	0x3cb7b328	0.022424296
68	0x3d1c7700	0.038199425
69	0x3c250a18	0.010073207
70	0x3cc40430	0.023927778
71	0x3cc340c7	0.0238346
72	0x3d3b3974	0.04570909
73	0xba9e6a34	-0.0012086094
74	0x3d211c04	0.03933336
75	0xba284500	-0.0006418973
76	0xba29eb66	-0.00064819155
77	0xba2ab413	-0.00065118185
78	0xba29c3eb	-0.00064760324
79	0xba296c8e	-0.0006463014
80	0xba2a4945	-0.00064959034
81	0xba2b2987	-0.00065293204
82	0xba2e894d	-0.00066580327
83	0xba2ae229	-0.0006518686
84	0xba2a474c	-0.00064956094
85	0xba2a8240	-0.0006504394
86	0xba2d840c	-0.0006619103
87	0xba2e333e	-0.0006645209
88	0xba2beb67	-0.000655821
89	0xba2a10e2	-0.0006487501
90	0xba2b2588	-0.0006528725
91	0xba2e8a2c	-0.00066581625
92	0xba2ed36b	-0.0006669077
93	0xba2c12aa	-0.00065640605
94	0xba2ad2d1	-0.00065163994
95	0xba2adcdc	-0.0006517896
96	0xba2c6aff	-0.0006577223
97	0xba2c9594	-0.0006583568
98	0xba2bf7fe	-0.0006560086
99	0xba2af8b0	-0.00065220427
100	0x0000233e	1.2643e-41
101	0x8000bce5	-6.7763e-41
102	0x800064f5	-3.6217e-41
103	0x0000bd78	6.7969e-41
104	0x0000d0eb	7.4946e-41
105	0x00005f43	3.4173e-41
106	0x80002815	-1.4379e-41
107	0x0000ae34	6.2492e-41
108	0x00007f06	4.5567e-41
109	0x0000b130	6.3563e-41
110	0x00000380	1.256e-42
111	0x80007e38	-4.5279e-41
112	0x80003177	-1.7745e-41
113	0x000072d3	4.1191e-41
114	0x0000ab9c	6.1562e-41
115	0x800021a8	-1.2074e-41
116	0x00009b1d	5.5644e-41
117	0x0000c9a9	7.2342e-41
118	0x800075aa	-4.221e-41
119	0x0000c552	7.0785e-41
120	0x80007642	-4.2423e-41
121	0x800049ea	-2.6515e-41
122	0x0000b33f	6.4301e-41
123	0x0000bd2d	6.7863e-41
124	0x0000b08e	6.3336e-41
125	0x3d191c90	0.037380755
126	0x3cf324d2	0.029680643
127	0x3d171233	0.03688259
128	0x3c98ebb0	0.018667072
129	0xbb07a968	-0.002070034
130	0x38056075	3.1799504e-05
131	0xbbe6347e	-0.0070253005
132	0x3b8d2825	0.004307764
133	0x3c0f4c80	0.008746266
134	0xbba286af	-0.004959903
135	0x3c0eff01	0.00872779
136	0x3c8c4898	0.01712446
137	0x3b5d764f	0.0033792441
138	0xba1c11e8	-0.0005953596
139	0x3c3c285b	0.011484231
140	0xbca2c033	-0.019867038
141	0xbbb381f6	-0.005478139
142	0xbcdd303a	-0.027000535
143	0x3cb7ebc9	0.022451298
144	0x3b26a159	0.002542576
145	0x3b7f8798	0.0038990732
146	0x3c5e37a2	0.013563069
147	0x3cd666ad	0.026172007
148	0x3d05cc42	0.0326655
149	0x3ce43cbd	0.027860994
150	0x3cce690c	0.025196575
151	0x3c975218	0.018471763
152	0x3d3e4016	0.046447836
153	0x3d5cafd9	0.05387864
154	0x3c05fe04	0.008178238
155	0x3c48c204	0.012253288
156	0x3b1c8376	0.0023882068
157	0x3ceabcf6	0.028654557
158	0x3ce3f87b	0.027828446
159	0x3c19508e	0.009357585
160	0x3beaf7e3	0.0071706637
161	0x3d2204aa	0.03955523
162	0xbc0f39a8	-0.008741774
163	0x3bd659f9	0.0065414873
164	0x3ca1a312	0.019731078
165	0x3c2fefe5	0.010738348
166	0x3d0e6c93	0.034771513
167	0x3ba1797b	0.0049278117
168	0x3cd69289	0.02619292
169	0x3ccd010d	0.025024915
170	0x3d204af3	0.039133977
171	0x3c7f0ba4	0.01556674
172	0x3c69563a	0.014241749
173	0x3c9a4bc4	0.018834956
174	0xbcc0e89b	-0.023548415
175	0xbbea43f6	-0.007149215
176	0xbc5643ac	-0.013077658
177	0x3ca85325	0.020547459
178	0x3c0b6e04	0.0085101165
179	0xbb5d3dc3	-0.0033758737
180	0x3cbbcb9e	0.02292424
181	0xbc29b62d	-0.0103583755
182	0x3c0b96b1	0.008519814
183	0xbb1e147e	-0.00241211
184	0xbac626a3	-0.0015117716
185	0x3c489ee3	0.012244913
186	0x3bc3b2e4	0.005972253
187	0x3b0df8aa	0.0021663108
188	0xbbdfd877	-0.0068312245
189	0x3c542679	0.012948626
190	0x3d049c77	0.03237578
191	0x3c0d1a4e	0.008612229
192	0x3cea2da0	0.028586209
193	0x3c189025	0.0093117105
194	0xbc34c360	-0.011032909
195	0x3c8da840	0.017292142
196	0xbc41cc14	-0.011828441
197	0x3b8a7d44	0.0042263586
198	0x3c5b5769	0.013387539
199	0xbba828bb	-0.0051318086
200	0x3cd2eb1c	0.025746875
201	0x3c04a8d7	0.008096895
202	0x3a695713	0.00089012197
203	0x3d112473	0.03543515
204	0x3caf3e9d	0.021392161
205	0x3d13174c	0.03591089
206	0x3ca9eb2c	0.020742022
207	0x3cf07639	0.029353248
208	0x3d29c2d0	0.041445553
209	0x3d88d3e1	0.06681038
210	0x3d5a1dd7	0.053251114
211	0xbc7ee953	-0.0155585585
212	0x3d1d47ed	0.038398672
213	0x3cfcc4bb	0.030855527
214	0x3d1ba8be	0.038002722
215	0x3cd51c97	0.02601461
216	0x3cd2c63f	0.025729297
217	0x3ce0fbfe	0.02746391
218	0x3a716d1e	0.000920968
219	0xbbedc256	-0.0072558327
220	0x3d30b96b	0.04314558
221	0x3d345876	0.044029675
222	0x3d285b51	0.04110271
223	0x3d528455	0.051395733
224	0x3d41fcf8	0.04736039
225	0xba1af32b	-0.00059108686
226	0xba1c57b9	-0.00059639994
227	0xba1d270a	-0.0005994892
228	0xba1c254c	-0.00059564854
229	0xba1aee46	-0.00059101393
230	0xba1c58a4	-0.0005964136
231	0xba1dbdbb	-0.0006017347
232	0xba1e4e9f	-0.0006038937
233	0xba1d7c3b	-0.00060075865
234	0xba1c7cf7	-0.0005969549
235	0xba1d5c7f	-0.00060028577
236	0xba1eb063	-0.00060535053
237	0xba1efee8	-0.00060652057
238	0xba204bdb	-0.0006114819
239	0xba1d19e0	-0.00059929304
240	0xba1df9d1	-0.00060263
241	0xba1f32d9	-0.00060729455
242	0xba1f8ecd	-0.00060866476
243	0xba1fb10e	-0.0006091752
244	0xba1d81af	-0.0006008399
245	0xba1dc858	-0.0006018928
246	0xba1f1a6e	-0.0006069307
247	0xba205ba7	-0.0006117173
248	0xba1fa99e	-0.00060906436
249	0xba1d7c52	-0.00060076
250	0x0000835d	4.7124e-41
251	0x000088b7	4.9044e-41
252	0x00009b7a	5.5774e-41
253	0x8000002b	-6e-44
254	0x00004d2a	2.7681e-41
255	0x00008fe5	5.162e-41

e_conv3.bias f4 [3]
0	0x3d250079	0.040283654
1	0x3d03ec9c	0.03220807
2	0x3d43333b	0.04765628

e_conv4.weight f4 [3, 6, 7, 7]
0	0xb92f06e3	-0.00016691866
1	0xb9302793	-0.0001679941
2	0xb93072fc	-0.00016827503
3	0xb930032e	-0.00016785852
4	0xb9329397	-0.00017030384
5	0xb934a9a9	-0.00017229341
6	0xb92f68c2	-0.00016728326
7	0xb9305f2d	-0.00016820124
8	0xb9318429	-0.00016929269
9	0xb9315cd4	-0.00016914617
10	0xb932c84b	-0.00017050018
11	0xb931429a	-0.00016904846
12	0xb9310efc	-0.00016885618
13	0xb9305f6c	-0.00016820215
14	0xb9323617	-0.00016995553
15	0xb9320d3c	-0.00016980333
16	0xb9373fb5	-0.00017475973
17	0xb933477a	-0.00017097397
18	0xb93253f9	-0.00017006685
19	0xb931ee49	-0.00016968804
20	0xb931b40f	-0.00016947112
21	0xb931c167	-0.00016952083
22	0xb933bb6e	-0.00017140593
23	0xb9325c84	-0.00017009868
24	0xb931e135	-0.00016963932
25	0xb93328bb	-0.00017085944
26	0xb93218d4	-0.00016984652
27	0xb9310046	-0.00016880137
28	0xb9324abf	-0.00017003248
29	0xb9349eb1	-0.00017225255
30	0xb932ca48	-0.00017050758
31	0xb9327a5b	-0.00017020984
32	0xb93696c0	-0.00017413031
33	0xb934223b	-0.0001717889
34	0xb9317426	-0.00016923304
35	0xb932b425	-0.00017042512
36	0xb934ddfa	-0.0001724883
37	0xb933f7ce	-0.00017163085
38	0xb9333d5c	-0.00017093628
39	0xb9331a50	-0.00017080572
40	0xb933250f	-0.00017084576
41	0xb93261ac	-0.00017011788
42	0xb932a528	-0.00017036928
43	0xb93a258b	-0.00017752328
44	0xb9334823	-0.00017097643
45	0xb9333624	-0.00017090939
46	0xb93322a9	-0.00017083682
47	0xb932cc3d	-0.00017051488
48	0xb9338a18	-0.00017122214
49	0x80003257	-1.8059e-41
50	0x8000d7a7	-7.7361e-41
51	0x0000ffa4	9.1707e-41
52	0x8000738b	-4.1449e-41
53	0x8000c02b	-6.8937e-41
54	0x80005c21	-3.305e-41
55	0x0000c39c	7.0171e-41
56	0x8000390c	-2.0465e-41
57	0x800082e6	-4.6958e-41
58	0x000089d0	4.9438e-41
59	0x8000a54d	-5.9299e-41
60	0x800062ec	-3.5486e-41
61	0x80008a1c	-4.9544e-41
62	0x80002783	-1.4174e-41
63	0x00002235	1.2271e-41
64	0x8000838f	-4.7194e-41
65	0x0000d3a1	7.5918e-41
66	0x0000fa95	8.9892e-41
67	0x80010606	-9.3996e-41
68	0x00009296	5.2585e-41
69	0x00001da7	1.0637e-41
70	0x00005bf9	3.2994e-41
71	0x80005e81	-3.3902e-41
72	0x80007705	-4.2696e-41
73	0x0000c21e	6.9636e-41
74	0x800102ea	-9.2881e-41
75	0x80000e2e	-5.087e-42
76	0x80000afb	-3.939e-42
77	0x8000cb3d	-7.2908e-41
78	0x80010185	-9.238e-41
79	0x00002002	1.1482e-41
80	0x0000541a	3.017e-41
81	0x80003d03	-2.1887e-41
82	0x0000f598	8.8102e-41
83	0x000007ba	2.772e-42
84	0x8000fe25	-9.117e-41
85	0x80010a58	-9.5546e-41
86	0x8000d56e	-7.6564e-41
87	0x80007e68	-4.5346e-41
88	0x80009caa	-5.62e-41
89	0x8000aa18	-6.1018e-41
90	0x800072a5	-4.1127e-41
91	0x0000fd85	9.0946e-41
92	0x0000d116	7.5006e-41
93	0x80007f7f	-4.5737e-41
94	0x80005735	-3.1284e-41
95	0x80006028	-3.4494e-41
96	0x0000eb84	8.4487e-41
97	0x80001ef2	-1.1101e-41
98	0xbb1f6e71	-0.0024327303
99	0x3c557b90	0.013029948
100	0x3c04f245	0.008114402
101	0xbab922b5	-0.0014124723
102	0xbca39b89	-0.019971626
103	0xbb9f89fa	-0.004868743
104	0x3cc9a4d9	0.024614738
105	0x3c117af5	0.008879413
106	0x3be6994d	0.007037318
107	0xbbd0974a	-0.0063656913
108	0x3c8df8c2	0.017330531
109	0xbcb1ed28	-0.02171953
110	0x3bd5357b	0.0065066195
111	0xbb72f4b4	-0.0037072124
112	0x3d1f45da	0.038884975
113	0xbc94a157	-0.01814334
114	0xbc3e965a	-0.011632526
115	0xba4d225e	-0.00078252505
116	0x3d00c093	0.031433653
117	0x3c1b65e9	0.0094847465
118	0x3c1c79a7	0.009550489
119	0xbc5867e1	-0.01320836
120	0x3c911f67	0.01771517
121	0x3b93982d	0.0045042248
122	0x3becf3f0	0.007231228
123	0x3d0b6b33	0.03403778
124	0x3c17a354	0.009255249
125	0xbc8dccd5	-0.017309586
126	0x3cbf49eb	0.023350677
127	0x3c0689a0	0.008211523
128	0x3d14ed8a	0.036359347
129	0x3bed1c45	0.007236036
130	0x3bd662f0	0.006542556
131	0xbc96efe3	-0.018424934
132	0xbba09e09	-0.0049016518
133	0xbc4658a5	-0.012106095
134	0xbc8682eb	-0.016419848
135	0xbb6e26e9	-0.003633911
136	0x3cf6f3e1	0.030145587
137	0x3cee9932	0.029125784
138	0x3ca2a3e5	0.019853542
139	0x3cc50773	0.024051404
140	0x3c877c5a	0.016538788
141	0x3a2d53fa	0.000661194
142	0xbc55b88d	-0.013044489
143	0x3bf325a1	0.007420257
144	0x3cbdd5e5	0.023173282
145	0xbc7a3f85	-0.015273933
146	0x3bc25cc6	0.0059314696
147	0x3c64f7db	0.013975109
148	0x3b8c92f0	0.0042899773
149	0x3c7ed747	0.015554256
150	0x3d0e5510	0.03474909
151	0x3d70c5d9	0.058782432
152	0x3d226646	0.039648317
153	0x3d001351	0.03126842
154	0x3d099c38	0.033596247
155	0x3cb8d0f6	0.022560578
156	0x3bc0c1de	0.005882486
157	0x3ca0acf3	0.019613719
158	0x3cc8fd35	0.024534801
159	0x3c50bbe9	0.012740114
160	0x3d143db7	0.03619167
161	0x3d45cc8d	0.048290778
162	0x3c1699c4	0.009191934
163	0xbb8dba20	-0.0043251663
164	0x3d3b2ac3	0.045695078
165	0x3b2671d1	0.002539743
166	0x3d1a5e62	0.037687667
167	0x3cd1948f	0.025583534
168	0x3c9e4848	0.019321576
169	0x3ce2fa78	0.027707323
170	0x3c6578d7	0.014005861
171	0x3cb24c2f	0.021764843
172	0x3c7fdfbe	0.015617309
173	0x3cf979fa	0.03045367
174	0x3ca71f67	0.020400716
175	0x3b75eeea	0.0037526437
176	0xbb99ab0f	-0.004689581
177	0x3cac1a1d	0.021008546
178	0x3bd23042	0.006414444
179	0xbb3d8dbb	-0.002892359
180	0x3a4eb5f6	0.00078853907
181	0x3d04529d	0.03230535
182	0x3c985165	0.0185935
183	0x3b66457c	0.003513663
184	0x3c98b1b3	0.018639421
185	0x3c037c4e	0.008025242
186	0x3d1661b1	0.03671426
187	0x3cf250ab	0.029579481
188	0x3d2dfcc2	0.042477377
189	0x3c77949a	0.015111113
190	0x3b4f69e7	0.0031648816
191	0x3c8113a0	0.015756428
192	0x3d232008	0.03982547
193	0xbc17d42d	-0.009266895
194	0x3d028c5f	0.03187215
195	0x3ccf00c4	0.02526892
196	0x3c282a53	0.010263997
197	0x3c29171b	0.01032045
198	0x3cf5cbd5	0.030004421
199	0x3b2d05a1	0.002640106
200	0x3d5367f4	0.05161281
201	0x3d4d7b57	0.050166454
202	0x3c71820e	0.01474048
203	0xbc93ab41	-0.018025996
204	0x3cf28cb1	0.029608103
205	0x3d1b97ba	0.037986495
206	0x3cd0725b	0.025445154
207	0x3c88ff43	0.01672328
208	0x3c9d4ac5	0.019200692
209	0x3cd24d6e	0.025671687
210	0x3c3b8a8f	0.011446609
211	0x3c6f0c88	0.01459039
212	0x3d0dcffd	0.03462218
213	0x3d4f4240	0.05060029
214	0x3cbf46b1	0.023349138
215	0x3cb3b460	0.021936595
216	0xbc8f8977	-0.017521603
217	0xbbebff99	-0.0072021005
218	0x3bb4288a	0.0054979967
219	0x3cb27758	0.021785423
220	0x3d00d6ca	0.03145484
221	0x3d2725d5	0.040807564
222	0xb8bd9835	-9.040573e-05
223	0x3cbb9d60	0.02290219
224	0x3be97544	0.007124575
225	0x3d6b02cf	0.057375725
226	0x3b67522f	0.0035296788
227	0xbc27796d	-0.010221821
228	0xba85cb27	-0.0010207639
229	0x3d0084a2	0.03137649
230	0x3cd01dd4	0.025404848
231	0x3c35c8b2	0.011095213
232	0x3cf56591	0.029955657
233	0x3bd6439d	0.006538822
234	0xbc7c76a7	-0.015409148
235	0xbc1573c7	-0.009121842
236	0x3d56b544	0.052418962
237	0x3d12230b	0.03567795
238	0xbbfa6209	-0.007641081
239	0xbbb279e9	-0.0054466617
240	0x3d012a4b	0.031534474
241	0x3c5de604	0.0135436095
242	0xbb3ae05c	-0.0028515076
243	0x3c135767	0.008993006
244	0x3c3bd1cd	0.011463595
245	0xbcf5edbe	-0.03002059
246	0x3c9cd5af	0.019144861
247	0x3b96eac0	0.004605621
248	0x3cb5befc	0.022185795
249	0x3d37f724	0.044913426
250	0x3cdd9781	0.027049782
251	0xbca99676	-0.020701628
252	0x3d192d37	0.037396636
253	0x3d25e9c3	0.040506136
254	0xbc2353a0	-0.009968668
255	0x3c1e2f93	0.009654897

e_conv4.bias f4 [3]
0	0xbc53da1e	-0.012930421
1	0xaf864f09	-2.4430616e-10
2	0x3bc00c63	0.0058608516

e_conv5.weight f4 [3, 12, 3, 3]
0	0x3c61b012	0.013774889
1	0x3cb06386	0.021531831
2	0x3d1ce3e3	0.038303267
3	0x3db60e57	0.08889454
4	0x3c0ff451	0.008786277
5	0x3d30f99b	0.043206792
6	0x38e95841	0.00011126744
7	0x3d0bd8fa	0.03414247
8	0x3d3b7e90	0.045774996
9	0x3c71db89	0.014761814
10	0x3d28dc90	0.04122597
11	0x3c90bcb2	0.017668102
12	0x3c89efb4	0.016837932
13	0x3c23754c	0.009976696
14	0x3c95b06e	0.018272605
15	0x3a412c9c	0.0007369013
16	0xbbffa9ee	-0.0078022396
17	0xbc92f7fc	-0.017940514
18	0x3d39c74b	0.045356076
19	0x3d392ae6	0.045206927
20	0x3c5cef92	0.013484852
21	0x3c9b6b17	0.018971963
22	0x3cf89239	0.030343162
23	0xba9d7e6a	-0.0012015824
24	0x3bf6dd2d	0.0075336904
25	0x3ada5b23	0.0016659241
26	0x3d8bf7ff	0.06834411
27	0xb9994807	-0.000292361
28	0xb990535d	-0.0002752793
29	0xb9936408	-0.00028112554
30	0xb990eb61	-0.0002764119
31	0xb993db4c	-0.00028201414
32	0xb994d736	-0.00028389104
33	0xb991eebe	-0.00027834432
34	0xb991d03a	-0.00027811696
35	0xb992beff	-0.00027989593
36	0x00007335	4.1328e-41
37	0x00005233	2.9488e-41
38	0x80004a20	-2.6591e-41
39	0x0000a49c	5.9051e-41
40	0x00005f7d	3.4255e-41
41	0x0000294f	1.4819e-41
42	0x80001478	-7.343e-42
43	0x0000b2a6	6.4087e-41
44	0x00002798	1.4204e-41
45	0xbc74ee35	-0.014949371
46	0xbcbdf2dc	-0.023187093
47	0x3d1b5438	0.037922114
48	0x3bb6efed	0.0055828006
49	0xbcd4ab6d	-0.025960648
50	0xbc0fccaf	-0.008776828
51	0x3b4a71b7	0.0030890533
52	0x3d22d525	0.03975405
53	0x3b5babbf	0.0033519117
54	0x3ca1ae00	0.01973629
55	0x3d1d93ed	0.03847115
56	0xb90b5895	-0.00013289072
57	0x3c618acc	0.013766002
58	0x3d4d07f7	0.050056424
59	0x3d050450	0.032474816
60	0x3cb81bc4	0.022474177
61	0x3caab917	0.02084021
62	0x3cd9cc7f	0.02658677
63	0x3d3897e0	0.045066714
64	0x3d0f11c3	0.03492905
65	0x3b848fdd	0.00404547
66	0x3bdd7ed3	0.0067595034
67	0xbced291c	-0.028950267
68	0x3c6a5057	0.014301381
69	0x3c28c682	0.010301234
70	0x3d216dfd	0.039411534
71	0x3be01eac	0.006839594
72	0xbad9a8a6	-0.0016606047
73	0x3afdccc6	0.0019363395
74	0xbceaa0c6	-0.028641116
75	0x3d680dbe	0.05665373
76	0x3cc6456f	0.02420303
77	0x3d094de5	0.03352155
78	0x3bc4f12b	0.006010195
79	0x3c3a280c	0.011362087
80	0x3d843b66	0.06456642
81	0x3c2bf9b1	0.010496543
82	0x3d1b6f7c	0.037948117
83	0xbce96693	-0.028491294
84	0x3ce80c4d	0.028326178
85	0x3d44f1d2	0.04808218
86	0x3d2d341e	0.04228603
87	0xbce05e9d	-0.027388865
88	0x3b1b6650	0.0023712106
89	0x3d1d7eae	0.03845089
90	0xb6037a11	-1.9591573e-06
91	0xb6affe17	-5.2449864e-06
92	0xb5e3739a	-1.6946462e-06
93	0x34c97a87	3.7528318e-07
94	0xb61b2cf9	-2.3122977e-06
95	0xb6bf81f0	-5.7073703e-06
96	0x353e65ad	7.0928473e-07
97	0xb74917d3	-1.1986081e-05
98	0xb61a6c4a	-2.301082e-06
99	0x3bfda8b0	0.0077410564
100	0x3acbf721	0.0015561321
101	0x3d1797e7	0.0370101
102	0x3b88ba5b	0.004172606
103	0x3c952bfa	0.018209446
104	0x3cce1c63	0.02516002
105	0x3c85a719	0.01631503
106	0x3b80c9f3	0.003930324
107	0xb5f36dd8	-1.813688e-06
108	0x3c9b7142	0.018974904
109	0x3d4d3e00	0.050107956
110	0x3c282730	0.010263249
111	0xbb09e253	-0.002103944
112	0x3ce09410	0.027414352
113	0x3c38a50d	0.01126982
114	0x3d2dd990	0.042443812
115	0x3c6940a4	0.014236603
116	0x3d5edbb5	0.054408748
117	0xbd09b8fd	-0.033623684
118	0x3b361265	0.002778196
119	0x3bd5b5a2	0.0065218965
120	0xbb621d6c	-0.00345024
121	0xba4752b2	-0.000760357
122	0x3c75fe48	0.015014239
123	0x3c5ac172	0.013351785
124	0xbc3d1df1	-0.011542783
125	0x3c75c52f	0.0150006255
126	0x3c333f52	0.01094039
127	0x3d0cd260	0.034380317
128	0x3d384eaf	0.044996914
129	0x3d747460	0.059681296
130	0xbcd207af	-0.02563843
131	0x3c82ab9a	0.015950967
132	0x3cdf7cf5	0.027281264
133	0x3c2278c3	0.009916487
134	0x3ceae541	0.02867377
135	0xba789473	-0.000948257
136	0xba797a39	-0.0009516809
137	0xba7838c6	-0.0009468909
138	0xba7999c2	-0.0009521508
139	0xba7966f5	-0.0009513938
140	0xba78d030	-0.00094914716
141	0xba7a078b	-0.0009537867
142	0xba79b259	-0.0009525172
143	0xba797001	-0.0009515286
144	0x0000a5a3	5.9419e-41
145	0x0000cd46	7.3638e-41
146	0x80009050	-5.177e-41
147	0x00009266	5.2518e-41
148	0x0000c9f5	7.2449e-41
149	0x0000b424	6.4622e-41
150	0x0000bdd2	6.8095e-41
151	0x0000042e	1.5e-42
152	0x0000c23f	6.9682e-41
153	0x3ce67c0b	0.02813532
154	0x3b03629b	0.0020047787
155	0xbd1d5a77	-0.038416352
156	0xbcb0f577	-0.021601422
157	0x3d1e2b22	0.038615353
158	0x3cbcbd2a	0.02303942
159	0x3c936abb	0.017995229
160	0xbc08506b	-0.008319954
161	0xbcc6d352	-0.024270687
162	0xbbff33a2	-0.0077881375
163	0x3cc2a3a6	0.023759674
164	0x3ba42644	0.0050094444
165	0x3cf788c6	0.030216586
166	0xbc802247	-0.015641345
167	0x3cf47907	0.029842867
168	0x3c2a3f2d	0.010391039
169	0x3cd26706	0.025683891
170	0xbc268179	-0.010162705
171	0xbbe6c842	-0.0070429156
172	0x3c08e637	0.008355669
173	0xbc08e9c1	-0.0083565125
174	0x3b89993d	0.0041991756
175	0x3c5b987d	0.013403055
176	0xbbcc964c	-0.0062435027
177	0x3be7a6d9	0.0070694503
178	0x3d0c69e7	0.034280684
179	0x3b68924e	0.0035487595
180	0xbc3d24e4	-0.01154444
181	0x3cf7e1b0	0.030258983
182	0x3c8bc7fe	0.017063137
183	0x3ceecb7d	0.029149765
184	0xbba76c1c	-0.005109323
185	0x3cbc17c8	0.022960559
186	0xbb458524	-0.0030139172
187	0x3d4fa1c2	0.050691374
188	0x3aa486df	0.0012552402
189	0x3d3ba010	0.045806944
190	0x3c2e426f	0.010635956
191	0x3cc07845	0.023494849
192	0xbb9bc1c0	-0.0047533214
193	0x3c421c16	0.0118475165
194	0x3d09b3bf	0.033618685
195	0x3d367495	0.044544775
196	0x3cdf55bf	0.027262567
197	0x3adae3ea	0.0016700004
198	0xb6f09312	-7.1696786e-06
199	0xb6ec37e3	-7.039854e-06
200	0xb684560b	-3.9439233e-06
201	0xb6eda9be	-7.082911e-06
202	0xb817dbf7	-3.6206064e-05
203	0xb6ba5541	-5.553157e-06
204	0xb6e6c681	-6.877643e-06
205	0xb6ed5482	-7.0729884e-06
206	0xb6f91563	-7.423268e-06
207	0x3cadbd85	0.021208534
208	0x3ce812da	0.028329302
209	0xbc2617cb	-0.010137509
210	0x3cd2a29b	0.025712302
211	0xbbf03cb5	-0.0073314556
212	0x3d0a61ea	0.033784784
213	0x3ce1e397	0.027574344
214	0x3d150f2f	0.036391433
215	0x3d095112	0.03352458
216	0x3cb8229c	0.02247744
217	0x3cc9cfff	0.024635313
218	0x3cbb48ed	0.022861922
219	0x3cbf3d95	0.023344794
220	0x3cd344f2	0.025789712
221	0x3cc280fc	0.023743145
222	0x3cb65a81	0.022259953
223	0x3cc80373	0.024415707
224	0x3cb9a89c	0.022663407
225	0x3c540d1b	0.012942578
226	0x3c66f72f	0.014097019
227	0x3c573376	0.013134828
228	0x3c5bad51	0.013408021
229	0x3c7130a2	0.014721068
230	0x3c5ef5c8	0.0136084035
231	0x3c524809	0.012834557
232	0x3c652e88	0.013988145
233	0x3c559f17	0.013038418
234	0x3c979f3b	0.018508544
235	0x3ca5ea84	0.020253427
236	0x3c9a1212	0.018807445
237	0x3c9d7bfa	0.019224156
238	0x3cadae9e	0.021201428
239	0x3ca006e6	0.01953454
240	0x3c9660f8	0.018356785
241	0x3ca4a899	0.020099925
242	0x3c98f53d	0.018671626
243	0xb92d1085	-0.0001650472
244	0xb922faec	-0.00015543
245	0xb92310a2	-0.00015551088
246	0xb925ee15	-0.00015824319
247	0xb9233f35	-0.00015568438
248	0xb923b583	-0.0001561251
249	0xb926a11f	-0.00015891016
250	0xb925438e	-0.00015760792
251	0xb9249ab6	-0.00015697893
252	0x80002c5f	-1.5917e-41
253	0x80006f68	-3.9965e-41
254	0x800049f3	-2.6528e-41
255	0x000066fa	3.6941e-41

e_conv5.bias f4 [3]
0	0x3cdf8885	0.027286777
1	0x3c428be7	0.011874176
2	0x3b908ae8	0.00441109
