AOD-Net/snapshots/Epoch0.pth (torch, 10375 bytes, 10 tensors)

e_conv1.weight f4 [3, 3, 1, 1]
0	0x3da2e295	0.07953373
1	0x3dada9d6	0.08479659
2	0x3dfc8ef2	0.12331952
3	0x3da2df51	0.079527505
4	0x3dacab91	0.08431161
5	0x3db1314e	0.08651982
6	0x3db8d358	0.090246856
7	0x3e1954e9	0.14973797
8	0x3e146e39	0.14495172

e_conv1.bias f4 [3]
0	0x3e62ef9a	0.22161713
1	0x3ede093c	0.4336642
2	0x3ec532b2	0.3851524

e_conv2.weight f4 [3, 3, 3, 3]
0	0x0000565b	3.0979e-41
1	0x00021d2f	1.9414e-40
2	0x800016b5	-8.146e-42
3	0x8001ad29	-1.53954e-40
4	0x00002712	1.4016e-41
5	0x80009872	-5.4687e-41
6	0x8000141e	-7.217e-42
7	0xab298d9c	-6.0237384e-13
8	0x1dbd3a94	5.008845e-21
9	0x00000519	1.829e-42
10	0x1f3355ea	3.797579e-20
11	0x0000e91a	8.3621e-41
12	0x0000429c	2.3895e-41
13	0x00011fe6	1.03278e-40
14	0x00004295	2.3885e-41
15	0x00009c74	5.6125e-41
16	0x80008e06	-5.0948e-41
17	0x800062ae	-3.54e-41
18	0x0000b076	6.3302e-41
19	0x8000b306	-6.4222e-41
20	0x8000d8da	-7.7792e-41
21	0x80001c04	-1.005e-41
22	0x0000e677	8.2675e-41
23	0x000048c5	2.6105e-41
24	0x0000c849	7.1849e-41
25	0x00009429	5.315e-41
26	0x80007a17	-4.3798e-41
27	0x00035da0	3.09093e-40
28	0x0000918e	5.2215e-41
29	0x80122b68	-1.66861e-39
30	0x80011049	-9.7678e-41
31	0x00007a3a	4.3847e-41
32	0x87e044af	-3.3744143e-34
33	0x80017de6	-1.37e-40
34	0x00001ec9	1.1044e-41
35	0x0e72cb2e	2.992663e-30
36	0x0231d6ad	1.3065515e-37
37	0x000013ae	7.06e-42
38	0x03102166	4.2356136e-37
39	0x0000b803	6.6011e-41
40	0x9319858d	-1.937716e-27
41	0x0000e27a	8.1244e-41
42	0x800082eb	-4.6965e-41
43	0x8496158e	-3.5284625e-36
44	0x0000854b	4.7817e-41
45	0x00005bac	3.2886e-41
46	0x8000ae0b	-6.2435e-41
47	0x0000718e	4.0736e-41
48	0x0000bb43	6.7177e-41
49	0x0000cb5f	7.2956e-41
50	0x0000617d	3.4972e-41
51	0x80008597	-4.7923e-41
52	0x93a92c4a	-4.270527e-27
53	0x00004ef3	2.8322e-41
54	0x3d398ff4	0.0453033
55	0x3c85d3bb	0.016336313
56	0x3c435163	0.01192126
57	0xbbabdbda	-0.005244714
58	0x3d2b6b8d	0.041850615
59	0x3caea645	0.021319518
60	0x3d20cddd	0.039258827
61	0xbba27e63	-0.004958914
62	0x3d38d0b1	0.0451209
63	0x3bd9cc9f	0.006646707
64	0x3c3c115e	0.01147875
65	0x3c9b40b7	0.018951757
66	0x3d0a7237	0.03380033
67	0xb89ddc06	-7.527326e-05
68	0x3d180ef7	0.037123647
69	0x3cbd259e	0.023089226
70	0x3ccb4b05	0.024816046
71	0xbc70ddd4	-0.014701325
72	0xbb1d304a	-0.0023985081
73	0xbcbb75c0	-0.022883296
74	0x3c409838	0.011755042
75	0x3c9795cc	0.018504046
76	0x3d34adae	0.044110946
77	0x3c0a120e	0.008427156
78	0x3d18d04a	0.037308015
79	0xbc8990bb	-0.016792646
80	0x3d01355c	0.031545028

e_conv2.bias f4 [3]
0	0xb703cad2	-7.855431e-06
1	0xb90399cb	-0.00012550426
2	0x3e0567c5	0.13027866

e_conv3.weight f4 [3, 6, 5, 5]
0	0x3d0f8f0a	0.035048522
1	0x3b7bca52	0.0038420153
2	0x3c3f7a9e	0.011686949
3	0x3c8e6cf2	0.017385934
4	0x3cbddb4b	0.023175856
5	0x3d23038b	0.0397983
6	0x3ba242e6	0.0049518226
7	0x3c89f0bb	0.016838422
8	0x3d128bac	0.035777733
9	0x3d3c3c6f	0.04595607
10	0x3aa7476a	0.0012762372
11	0x3cf0b317	0.029382272
12	0x3d53eb56	0.051738106
13	0x3d73d114	0.059525564
14	0x3b2311ac	0.002488236
15	0x3d114d7e	0.035474293
16	0x3c2acd71	0.010424958
17	0x3c604c13	0.0136900125
18	0x3ccac253	0.024750864
19	0x3b7cc497	0.0038569325
20	0x3bd29926	0.006426948
21	0x3d0bdb0e	0.034144454
22	0x3c5de44e	0.013543202
23	0x3db0cfa8	0.08633357
24	0x3be5e921	0.0070163165
25	0x3c27464f	0.010209634
26	0x3c76bc10	0.015059486
27	0x3b951f8d	0.0045508803
28	0x3a7d24b2	0.0009656652
29	0xbbd91edd	-0.0066259936
30	0x3c8220a4	0.015884705
31	0x3d3672c6	0.04454305
32	0x3cbfd9ea	0.02341934
33	0x3bc1250a	0.005894308
34	0x3c179995	0.009252925
35	0xbc6aaa6b	-0.014322857
36	0x3d4959a1	0.049157742
37	0x3b93884f	0.0045023332
38	0x3ac88d38	0.0015300876
39	0x3c84ab21	0.016194882
40	0x3caedef5	0.021346549
41	0xbd331fcb	-0.043731492
42	0xbc28a7a8	-0.010293879
43	0x3d7f438f	0.06232029
44	0x3c9c9cd9	0.01911776
45	0x3bf4ef64	0.0074748266
46	0xbc368239	-0.011139446
47	0xbbf0eb2b	-0.007352253
48	0xbb52f319	-0.0032188355
49	0xbca47dcb	-0.020079514
50	0x3d1e534f	0.038653668
51	0x3ccaf032	0.024772737
52	0x3b584b7f	0.0033003984
53	0x3db217c7	0.086959414
54	0x3d6c4968	0.057687193
55	0x3cb0f3c2	0.021600608
56	0xbcd4c30c	-0.025971912
57	0x3cde4e11	0.027136834
58	0x3aa79e83	0.0012788329
59	0x3d42a971	0.047524873
60	0x3d4e7412	0.050403662
61	0x3d3826ea	0.044958986
62	0x3d035c5a	0.032070495
63	0x3d3c90bf	0.046036478
64	0xba44710a	-0.0007493651
65	0x3d57dbfc	0.052700028
66	0x3cad4363	0.021150297
67	0x3ca94c14	0.02066616
68	0x3d1744c3	0.03693081
69	0x3bf3a5de	0.0074355444
70	0x3cb09b4e	0.02155843
71	0x3cb5410d	0.022125745
72	0x3d37a7a3	0.044837605
73	0xbb6c4760	-0.0036053285
74	0x3d1a4885	0.037666816
75	0x800194be	-1.45194e-40
76	0x80009578	-5.3619e-41
77	0x00004b17	2.6937e-41
78	0x00008465	4.7494e-41
79	0x926d0307	-7.4787745e-28
80	0x00002296	1.2407e-41
81	0x0000c45c	7.044e-41
82	0xa7342820	-2.500177e-15
83	0x80016c74	-1.30741e-40
84	0x01ce0448	7.567859e-38
85	0x800109ba	-9.5325e-41
86	0x904857aa	-3.951058e-29
87	0x19ecda0a	2.4489893e-23
88	0x00005e80	3.39e-41
89	0x00020cb9	1.88235e-40
90	0x00005223	2.9465e-41
91	0x1f7f7b81	5.410051e-20
92	0x9ecb17db	-2.1503327e-20
93	0x80002804	-1.4355e-41
94	0x800087f3	-4.877e-41
95	0x000040ee	2.3292e-41
96	0x80009f2d	-5.7102e-41
97	0x800117bd	-1.00351e-40
98	0x80006846	-3.7406e-41
99	0x800002ce	-1.006e-42
100	0x0000ab63	6.1482e-41
101	0x00003eb0	2.2488e-41
102	0x8000ec21	-8.4707e-41
103	0x80005f7b	-3.4252e-41
104	0x8000ddd7	-7.9581e-41
105	0x80003ddc	-2.2191e-41
106	0x87cdeaa6	-3.0982886e-34
107	0x8000562f	-3.0917e-41
108	0x8000bd50	-6.7913e-41
109	0x80010029	-9.1893e-41
110	0x0001436f	1.16026e-40
111	0x800015dd	-7.843e-42
112	0x80003743	-1.9824e-41
113	0x0000dfda	8.0303e-41
114	0x8001a58b	-1.51221e-40
115	0x0000b592	6.5135e-41
116	0x8000abde	-6.1654e-41
117	0x80000e5b	-5.15e-42
118	0x80002e11	-1.6526e-41
119	0x000096cb	5.4094e-41
120	0x800048b2	-2.6078e-41
121	0x1acec46e	8.551695e-23
122	0x000010fc	6.093e-42
123	0x80001d67	-1.0548e-41
124	0x8000a4c0	-5.9101e-41
125	0x3d2fbb83	0.042903434
126	0x3d11efbd	0.035629023
127	0x3d325ba8	0.04354444
128	0x3cc5abd5	0.024129787
129	0x3ac7f148	0.0015254403
130	0x3b704435	0.0036661748
131	0xbb41aa26	-0.002955088
132	0x3c189b37	0.00931435
133	0x3c62f499	0.013852262
134	0xbaaa4207	-0.0012989648
135	0x3c55ae4b	0.013042043
136	0x3cba3b7f	0.022733448
137	0x3c0b2612	0.008492963
138	0x3b87c5c8	0.0041434504
139	0x3c852960	0.01625508
140	0xbc8c158e	-0.017100122
141	0xba8de4c0	-0.0010825619
142	0xbcc0e1e7	-0.023545219
143	0x3ce9fb89	0.028562324
144	0x3be0c827	0.0068597975
145	0x3c02be7d	0.007979986
146	0x3c9ba787	0.019000782
147	0x3d058dbd	0.032605875
148	0x3d20f5cb	0.039296906
149	0x3d09641a	0.03354273
150	0x3c9acea7	0.018897368
151	0x3c505a81	0.01271689
152	0x3d2d53e5	0.042316336
153	0x3d4cae7c	0.04997109
154	0x3aa9835f	0.0012932828
155	0x3bbb381e	0.005713477
156	0xbb7c8d5e	-0.003853641
157	0x3cc3bb32	0.023892973
158	0x3cbb47d5	0.0228614
159	0x3b42687f	0.0029664335
160	0x3a41d957	0.0007394752
161	0x3d122f8b	0.03568987
162	0xbc79e15a	-0.015251482
163	0x3a3a2458	0.00071007526
164	0x3c6990fb	0.014255757
165	0x3b965af6	0.00458848
166	0x3cfba0bf	0.030716298
167	0xba4a175c	-0.00077091693
168	0x3cb00147	0.021484984
169	0x3ca2e890	0.019886285
170	0x3d0dd9b3	0.034631442
171	0x3c2cf944	0.010557476
172	0x3c165107	0.009174592
173	0x3c626d58	0.013820015
174	0xbd00377d	-0.031302918
175	0xbb93a8f0	-0.004506223
176	0xbc234262	-0.009964557
177	0x3cccd552	0.025004063
178	0x3c4b085b	0.012392129
179	0xb999eafe	-0.00029357517
180	0x3cdd0bfe	0.026983257
181	0xbbe0ed71	-0.0068642427
182	0x3c519c6e	0.012793643
183	0x3aafa2ab	0.0013399919
184	0x3afe2ed2	0.0019392616
185	0x3c847231	0.016167732
186	0x3c287b24	0.010283265
187	0x3bd2389e	0.0064154407
188	0xbb46e2a7	-0.0030347498
189	0x3c8c8709	0.017154234
190	0x3d17ba1d	0.037042726
191	0x3c5560ca	0.013023565
192	0x3d0a6b39	0.03379366
193	0x3c603093	0.013683456
194	0xbbfca3e4	-0.007709967
195	0x3caf652d	0.021410549
196	0xbc059ccb	-0.008155058
197	0x3c0c4cd4	0.008563239
198	0x3c92b9c1	0.01791084
199	0xbad40366	-0.0016175329
200	0x3cbc7eeb	0.023009738
201	0x3bb674fb	0.0055681444
202	0xbae9efb6	-0.0017847929
203	0x3d0a6eb6	0.03379699
204	0x3c9a5bc9	0.018842595
205	0x3d0af3d4	0.03392394
206	0x3c9b9005	0.018989572
207	0x3ce51019	0.027961778
208	0x3d253353	0.04033215
209	0x3d8793bd	0.06619976
210	0x3d55c178	0.05218646
211	0xbc95d77e	-0.018291231
212	0x3d19e933	0.03757591
213	0x3cf2b6cf	0.029628186
214	0x3d164036	0.03668233
215	0x3cc506c8	0.024051085
216	0x3cc866ca	0.024463076
217	0x3cd75543	0.026285773
218	0xbaaed23e	-0.0013337804
219	0xbc260050	-0.01013191
220	0x3d2b4a2d	0.041818786
221	0x3d31f86e	0.04344981
222	0x3d25be52	0.040464707
223	0x3d50a6eb	0.050940435
224	0x3d3dffdd	0.04638659
225	0x8000b772	-6.5808e-41
226	0x00008be0	5.0178e-41
227	0x00005c91	3.3207e-41
228	0x00004baf	2.715e-41
229	0x80001eb2	-1.1011e-41
230	0x0001bb98	1.59131e-40
231	0x80013d25	-1.1377e-40
232	0x80003026	-1.7272e-41
233	0x00004e28	2.8037e-41
234	0x80001f24	-1.1171e-41
235	0x00008b8d	5.0061e-41
236	0x00005a1b	3.2324e-41
237	0x8000e05a	-8.0482e-41
238	0x9c3611e9	-6.0241897e-22
239	0x0000f872	8.9125e-41
240	0x8000c839	-7.1826e-41
241	0x000045d9	2.5057e-41
242	0x0000a7df	6.0221e-41
243	0x000654d3	5.81442e-40
244	0x8002004d	-1.83779e-40
245	0x800074e7	-4.1937e-41
246	0x0000faa2	8.991e-41
247	0x029d4f50	2.31146e-37
248	0x80049d54	-4.2378e-40
249	0x80010f9e	-9.7438e-41
250	0x00009bbc	5.5867e-41
251	0x80010177	-9.2361e-41
252	0x800018db	-8.916e-42
253	0x00007ebc	4.5464e-41
254	0x800043b2	-2.4285e-41
255	0x800068b8	-3.7566e-41

e_conv3.bias f4 [3]
0	0x3d5de311	0.054171626
1	0x3d3de26f	0.046358522
2	0x3d7c12f9	0.06154153

e_conv4.weight f4 [3, 6, 7, 7]
0	0x8000bd13	-6.7827e-41
1	0x0000ff7f	9.1655e-41
2	0x0000aeb9	6.2679e-41
3	0x8000e2ca	-8.1357e-41
4	0x11a70cb0	2.6355774e-28
5	0xa702c1f6	-1.814627e-15
6	0x00004769	2.5617e-41
7	0x0000f9e8	8.965e-41
8	0x00006cbd	3.9008e-41
9	0x0000dd3e	7.9367e-41
10	0x818ea3e8	-5.2397756e-38
11	0x8001381d	-1.11965e-40
12	0x800061be	-3.5063e-41
13	0x00001046	5.838e-42
14	0x80005799	-3.1424e-41
15	0x8000d5f1	-7.6748e-41
16	0xa920f37c	-3.5738326e-14
17	0x02d95103	3.1931783e-37
18	0x0000a652	5.9664e-41
19	0x000081c0	4.6546e-41
20	0x00002e6d	1.6654e-41
21	0x8000a1d5	-5.8054e-41
22	0x80008a6b	-4.9655e-41
23	0x80003221	-1.7983e-41
24	0x000103b9	9.3171e-41
25	0x800047f9	-2.5819e-41
26	0x0001a73a	1.51825e-40
27	0x0000a321	5.852e-41
28	0x0001279c	1.06045e-40
29	0x0005d224	5.34562e-40
30	0x800174eb	-1.33778e-40
31	0x80002841	-1.444e-41
32	0xa214f30d	-2.018641e-18
33	0x8083dedd	-1.2110398e-38
34	0x80001057	-5.862e-42
35	0x00001778	8.419e-42
36	0x800022a2	-1.2424e-41
37	0x0000a110	5.7778e-41
38	0x80005c2b	-3.3064e-41
39	0x80004494	-2.4601e-41
40	0x0000cae0	7.2778e-41
41	0x00001f81	1.1301e-41
42	0x8000a4b2	-5.9082e-41
43	0xacfb2e07	-7.138959e-12
44	0x8000aecd	-6.2707e-41
45	0x0000cd51	7.3654e-41
46	0x800050cb	-2.8983e-41
47	0x00001719	8.286e-42
48	0x870134df	-9.720419e-35
49	0x0039030a	5.235713e-39
50	0x00002d9c	1.6362e-41
51	0x0609f708	2.5948326e-35
52	0x138ac6f6	3.503229e-27
53	0x80003784	-1.9915e-41
54	0x0000dafa	7.8554e-41
55	0x80001e4c	-1.0868e-41
56	0x8055f336	-7.893265e-39
57	0x00000907	3.238e-42
58	0x00005502	3.0495e-41
59	0x0ef29e24	5.980989e-30
60	0x808b48d2	-1.2791257e-38
61	0x80004394	-2.4242e-41
62	0x00010180	9.2374e-41
63	0x00003fa8	2.2836e-41
64	0x80008fb2	-5.1548e-41
65	0x00006cda	3.9049e-41
66	0xa2f5cc89	-6.6623943e-18
67	0x8000269c	-1.385e-41
68	0x000049ec	2.6518e-41
69	0x80001081	-5.92e-42
70	0x18566807	2.7711372e-24
71	0x1a7e144a	5.2542358e-23
72	0x0005971c	5.13385e-40
73	0x800054eb	-3.0463e-41
74	0x00006db3	3.9353e-41
75	0x0000d2cb	7.5618e-41
76	0x8000798c	-4.3603e-41
77	0x8000936d	-5.2886e-41
78	0x8000b3f1	-6.4551e-41
79	0x80015698	-1.229e-40
80	0x00008751	4.8542e-41
81	0x8000800b	-4.5933e-41
82	0x80007463	-4.1752e-41
83	0x8000775d	-4.282e-41
84	0x0000c3ad	7.0195e-41
85	0x8000516f	-2.9213e-41
86	0x00000429	1.492e-42
87	0xacf8f25e	-7.075492e-12
88	0x0000b5db	6.5237e-41
89	0x8000d576	-7.6575e-41
90	0x178d4328	9.128864e-25
91	0x1f150b6a	3.156142e-20
92	0x00003651	1.9485e-41
93	0x8000d6e2	-7.7085e-41
94	0x0000cd98	7.3753e-41
95	0x00005875	3.1732e-41
96	0x83b8ab28	-1.0853844e-36
97	0x00000874	3.032e-42
98	0xba321b29	-0.00067942083
99	0x3c956fba	0.018241752
100	0x3c51aff4	0.012798298
101	0x3ae6e239	0.0017615027
102	0xbca248b5	-0.01981006
103	0xbb170c7a	-0.0023048208
104	0x3d010be9	0.0315055
105	0x3c521a6f	0.012823685
106	0x3c3c79d9	0.01150366
107	0xbb7f73ce	-0.0038978937
108	0x3cc34642	0.023837212
109	0xbcb13898	-0.021633431
110	0x3c384a6a	0.01124821
111	0xbaa41e08	-0.0012521157
112	0x3d442928	0.047890812
113	0xbc92e3e3	-0.01793093
114	0xbc26558c	-0.010152232
115	0x3b271eef	0.0025500616
116	0x3d2538df	0.04033744
117	0x3c70ad50	0.014689758
118	0x3c696ced	0.014247161
119	0xbc517111	-0.012783305
120	0x3cc517a5	0.024059126
121	0x3c0f951c	0.008763578
122	0x3c43d670	0.011952981
123	0x3d31dd30	0.04342383
124	0x3c6d673a	0.014489943
125	0xbc8b5ccd	-0.017012024
126	0x3cf7b26e	0.03023645
127	0x3c5a0a37	0.0133080995
128	0x3d3dbca1	0.04632247
129	0x3c4990e5	0.012302612
130	0x3c3e4fe0	0.011615723
131	0xbc8fe78b	-0.017566463
132	0xbb14b3a5	-0.0022690084
133	0xbc322593	-0.010873216
134	0xbc7816be	-0.015142141
135	0xb82bfbfc	-4.1004256e-05
136	0x3d216512	0.03940303
137	0x3d1ccd20	0.03828156
138	0x3ce02497	0.027361197
139	0x3d01f9b5	0.03173228
140	0x3cb82aad	0.022481287
141	0x3b9a25c7	0.0047042104
142	0xbc36382d	-0.011121792
143	0x3c51336c	0.012768608
144	0x3cff90f2	0.031197045
145	0xbc629114	-0.013828535
146	0x3c2a510e	0.0103953015
147	0x3c28a93c	0.010294255
148	0x3aec917c	0.0018048729
149	0x3c6d5c6c	0.014487367
150	0x3d10078a	0.03516344
151	0x3d77bfea	0.060485758
152	0x3d22e3f3	0.03976817
153	0x3cf3115c	0.029671364
154	0x3d01ab65	0.031657595
155	0x3cb20316	0.021729987
156	0x3b9fec3a	0.0048804553
157	0x3ca21ad5	0.019788185
158	0x3ccc2eb6	0.024924617
159	0x3c441fea	0.0119704995
160	0x3d116e41	0.035505537
161	0x3d42ed42	0.047589548
162	0x3c02c6ba	0.00798195
163	0xbbb610df	-0.0055562104
164	0x3d435290	0.04768616
165	0x3b04d38f	0.00202677
166	0x3d1e74d7	0.038685646
167	0x3cca2068	0.024673656
168	0x3c8d712a	0.017265875
169	0x3ce3c06a	0.027801711
170	0x3c6617f6	0.014043799
171	0x3cb9459e	0.022616204
172	0x3c838831	0.016056152
173	0x3d000a83	0.031260025
174	0x3c9f37c8	0.019435778
175	0x3a80188e	0.0009772943
176	0xbbce318d	-0.006292528
177	0x3cb0aa4b	0.021565577
178	0x3bd52288	0.0065043606
179	0xbb5f7970	-0.0034099482
180	0x353de84b	7.074602e-07
181	0x3d038912	0.032113142
182	0x3c89917d	0.016793007
183	0x3b2310a9	0.0024881756
184	0x3c9cefc4	0.019157298
185	0x3c07b596	0.00828304
186	0x3d1dae35	0.038496215
187	0x3cf9877e	0.030460116
188	0x3d2fbba2	0.04290355
189	0x3c5671de	0.0130886715
190	0x3b07a25d	0.0020696141
191	0x3c8350c7	0.016029729
192	0x3d2b183b	0.041771155
193	0xbc277ce7	-0.01022265
194	0x3d0616f5	0.032736737
195	0x3cc96a02	0.024586681
196	0x3be350b8	0.0069371127
197	0x3c10e1da	0.00884291
198	0x3cfbe97e	0.030750986
199	0x3ae1be72	0.0017222895
200	0x3d5e0e5a	0.054212905
201	0x3d55d2b8	0.05220291
202	0x3c5481ac	0.012970369
203	0xbcbb1829	-0.022838669
204	0x3cf7064a	0.030154366
205	0x3d237599	0.03990707
206	0x3cdb6ac3	0.026784306
207	0x3c8dbec6	0.017302882
208	0x3c9fd879	0.019512402
209	0x3ccf1538	0.025278673
210	0x3c179a13	0.009253043
211	0x3c6cadd9	0.014445745
212	0x3d16515c	0.036698684
213	0x3d5e0404	0.05420305
214	0x3ccb45bc	0.024813525
215	0x3cbb22d9	0.022843765
216	0xbca99f1c	-0.020705752
217	0xbc2b7b09	-0.010466346
218	0x3ba24b8a	0.0049528526
219	0x3cbdd176	0.023171168
220	0x3d0ae5c4	0.033910528
221	0x3d339433	0.043842506
222	0xba0dc77c	-0.00054084486
223	0x3cbc4250	0.022980839
224	0x3ba5b411	0.005056866
225	0x3d78e154	0.060761765
226	0x3b6d91af	0.0036250164
227	0xbc30cb1a	-0.010790611
228	0xba8443d6	-0.0010091017
229	0x3d0883aa	0.03332869
230	0x3cd2dd4e	0.025740292
231	0x3c1a5556	0.00941976
232	0x3d007fc4	0.031371847
233	0x3be15f43	0.006877811
234	0xbc861aac	-0.01637014
235	0xbc1f5374	-0.009724487
236	0x3d64fed9	0.055907104
237	0x3d168b0d	0.036753703
238	0xbc30892d	-0.010774893
239	0xbbdd43f8	-0.0067524873
240	0x3d098c97	0.033581343
241	0x3c6e234f	0.014534785
242	0xbb524abf	-0.003208801
243	0x3c141a74	0.00903951
244	0x3c2ca005	0.0105361985
245	0xbd15058a	-0.036382236
246	0x3c8c244d	0.017107153
247	0x3b27a540	0.0025580674
248	0x3cae6636	0.021288972
249	0x3d38bdbc	0.04510282
250	0x3cd52131	0.026016803
251	0xbccde225	-0.025132248
252	0x3d0ff218	0.035142988
253	0x3d24e8ec	0.040261194
254	0xbc455670	-0.012044534
255	0x3c10999f	0.008825689

e_conv4.bias f4 [3]
0	0xbb15409d	-0.0022774108
1	0x3b253d29	0.0025213456
2	0x3c8f8449	0.017519133

e_conv5.weight f4 [3, 12, 3, 3]
0	0x3b9fb9ff	0.0048744674
1	0x3c2639fb	0.01014566
2	0x3d043b08	0.03228286
3	0x3daafc68	0.08348924
4	0xbbb86789	-0.0056275767
5	0x3d1322bf	0.03592181
6	0xbc1c1835	-0.009527256
7	0x3cc45d32	0.02397022
8	0x3d273e90	0.04083115
9	0x3c8510e0	0.016243398
10	0x3d2d62f8	0.042330712
11	0x3ca36cea	0.019949395
12	0x3c8f1059	0.01746385
13	0x3c0b367e	0.008496879
14	0x3ca1a5ce	0.019732382
15	0x3adcfada	0.0016859428
16	0xbc102fac	-0.008800428
17	0xbc8b649e	-0.017015751
18	0x3d29206f	0.041290697
19	0x3d1e82d9	0.038699005
20	0x3c12e029	0.008964577
21	0x3c493a8c	0.012282025
22	0x3cafc094	0.021454133
23	0xbbfb913d	-0.007677226
24	0x3b005516	0.0019581965
25	0xbbd5d657	-0.0065257954
26	0x3d888f0a	0.066679075
27	0x2e61cacf	5.1339207e-11
28	0x80009978	-5.5054e-41
29	0x05645b83	1.07373165e-35
30	0x00010170	9.2351e-41
31	0x13b7acd8	4.636613e-27
32	0x9310512c	-1.8215376e-27
33	0x80015186	-1.2108e-40
34	0x8000d2ea	-7.5662e-41
35	0x00014fcb	1.2046e-40
36	0x0000f45d	8.7661e-41
37	0x80520cbb	-7.535078e-39
38	0x000053c3	3.0048e-41
39	0x86246e67	-3.0926083e-35
40	0x00003c7e	2.17e-41
41	0x000022a3	1.2425e-41
42	0x8000554b	-3.0597e-41
43	0x8000503f	-2.8787e-41
44	0x800018f8	-8.957e-42
45	0xbc66397b	-0.01405179
46	0xbcba7444	-0.022760518
47	0x3d324714	0.043524817
48	0x3c037bd6	0.00802513
49	0xbcd419a1	-0.025891127
50	0xbbe5693f	-0.0070010717
51	0x3bc40ea4	0.0059831906
52	0x3d3bd93a	0.04586146
53	0x3bdf518c	0.006815141
54	0x3c8eb9a4	0.017422505
55	0x3d1a02c8	0.03760031
56	0xbadd01ce	-0.00168615
57	0x3c3a64ae	0.011376543
58	0x3d4b30f4	0.049607232
59	0x3d02d5d6	0.03194221
60	0x3ca73da3	0.020415133
61	0x3ca13194	0.019676961
62	0x3cd4ede3	0.02599234
63	0x3d355bbc	0.044276938
64	0x3d0d3ca7	0.03448167
65	0x3b3866ae	0.0028137374
66	0x3b9a9a54	0.0047181044
67	0xbd011df4	-0.031522706
68	0x3c60aa9b	0.0137125505
69	0x3c0865f1	0.008325086
70	0x3d210f40	0.039321184
71	0x3bc5823a	0.006027487
72	0xbb94cc33	-0.004540944
73	0xb9e2534d	-0.00043168143
74	0xbd014179	-0.03155658
75	0x3d61976d	0.05507605
76	0x3cb67e66	0.022277068
77	0x3d038252	0.032106705
78	0x3b4ae6bb	0.003096028
79	0x3c14ceff	0.009082555
80	0x3d82ec29	0.063927
81	0x3c1688f9	0.00918793
82	0x3d1a2989	0.037637267
83	0xbcf11303	-0.02942801
84	0x3ce1561e	0.027506884
85	0x3d455fe4	0.04818715
86	0x3d2d89cd	0.042367745
87	0xbceaffbc	-0.028686397
88	0x3b093719	0.0020937382
89	0x3d1df77f	0.03856611
90	0x3b03b105	0.0020094526
91	0xbba25663	-0.0049541458
92	0x3b3b3556	0.0028565726
93	0x3be88273	0.007095629
94	0x3abad500	0.0014254153
95	0xbbc07faa	-0.0058745937
96	0x3bffd24b	0.0078070513
97	0xbc9e749f	-0.019342719
98	0x3ac8d5fd	0.0015322563
99	0x3bc3518a	0.005960648
100	0x3a1fa49b	0.0006089897
101	0x3d153b71	0.03643364
102	0x3b2d2f0f	0.0026425754
103	0x3c90e94e	0.017689373
104	0x3ccaf387	0.024774326
105	0x3c74fc3e	0.014952717
106	0x3b5b29e9	0.0033441728
107	0xba0e9dfd	-0.0005440412
108	0x3c68f385	0.014218216
109	0x3d384280	0.044985294
110	0x3ba115a0	0.004915908
111	0xbc0e7820	-0.008695632
112	0x3ca3f9bb	0.020016542
113	0x3bac8618	0.0052650087
114	0x3d23a609	0.039953265
115	0x3c00b1a3	0.007854852
116	0x3d5659ee	0.052331857
117	0xbd12f607	-0.03587916
118	0x3a4579e5	0.00075331173
119	0x3bbc9577	0.0057551223
120	0xbba00e3e	-0.0048845103
121	0xbb614125	-0.0034371105
122	0x3c6898dc	0.014196601
123	0x3c5b3afa	0.01338076
124	0xbc600e4d	-0.013675285
125	0x3c750cd0	0.014956668
126	0x3be941e3	0.00711845
127	0x3cf2ebcc	0.029653452
128	0x3d2d717c	0.042344555
129	0x3d69e410	0.057102263
130	0xbd0896ae	-0.033346824
131	0x3c3ef52d	0.011655134
132	0x3ccaf127	0.024773194
133	0x3ba1948f	0.0049310396
134	0x3cd50bc9	0.026006596
135	0x80001f33	-1.1192e-41
136	0x0a299796	8.165564e-33
137	0x00000d99	4.878e-42
138	0x8000badd	-6.7034e-41
139	0x800015b7	-7.79e-42
140	0x000108db	9.5012e-41
141	0x800068ad	-3.755e-41
142	0x80003bd9	-2.1469e-41
143	0x00003c76	2.1689e-41
144	0x80009c06	-5.597e-41
145	0x000100a2	9.2063e-41
146	0x000020f1	1.1817e-41
147	0x00137e1d	1.790115e-39
148	0x80004185	-2.3504e-41
149	0x8153b2f2	-3.8882966e-38
150	0x0000ba6b	6.6874e-41
151	0x9d275145	-2.2144281e-21
152	0x800013bb	-7.078e-42
153	0x3cf114c2	0.029428843
154	0x3adca94a	0.001683512
155	0xbd2a8701	-0.041632656
156	0xbcc0495e	-0.023472484
157	0x3d272b61	0.040812854
158	0x3cc4b23e	0.024010774
159	0x3c9d9769	0.019237237
160	0xbc0f3802	-0.008741381
161	0xbcd4c491	-0.025972636
162	0xbc266e11	-0.010158078
163	0x3cb84f6f	0.022498814
164	0x3b50552a	0.0031789043
165	0x3cedf99e	0.02904969
166	0xbc8f6147	-0.01750244
167	0x3cec6c4a	0.02886023
168	0x3c12e942	0.008966746
169	0x3ccc6f95	0.02495555
170	0xbc4318b1	-0.011907742
171	0xbc10db16	-0.008841297
172	0x3beeb499	0.0072847125
173	0xbc2508e3	-0.01007292
174	0x3b491558	0.0030682888
175	0x3c522add	0.012827602
176	0xbbf75db2	-0.007549011
177	0x3bc8463c	0.006111888
178	0x3d0cf819	0.034416292
179	0x3b2cdfc2	0.0026378487
180	0xbc65db2e	-0.014029307
181	0x3cebd61c	0.028788619
182	0x3c774e58	0.015094362
183	0x3ce2e2d5	0.027696053
184	0xbbe8da5a	-0.0071061077
185	0x3cae94ac	0.021311127
186	0xbba36fe9	-0.004987706
187	0x3d4cad49	0.049969945
188	0xba3edaee	-0.0007280548
189	0x3d38302d	0.04496782
190	0x3c20e3e3	0.009819957
191	0x3cb7688c	0.022388719
192	0xbbb5dcdb	-0.0055500097
193	0x3c3c20d4	0.011482436
194	0x3d0740ce	0.033020787
195	0x3d3597a2	0.04433406
196	0x3cdec490	0.027193338
197	0x3a7ec491	0.0009718622
198	0x3b122b40	0.002230361
199	0x3b24032f	0.0025026312
200	0x3bb9d000	0.0056705475
201	0x3b18258b	0.0023215737
202	0xbcd5b151	-0.026085528
203	0x3b850b98	0.00406022
204	0x3b2573f7	0.0025246122
205	0x3b21d70d	0.002469483
206	0x3b0ea72d	0.0021767125
207	0x3ca23fe1	0.01980585
208	0x3ce14dbd	0.027502889
209	0xbc3cf5d0	-0.011533216
210	0x3ccada07	0.024762167
211	0xbc032858	-0.008005224
212	0x3d07931a	0.03309927
213	0x3cdb93a7	0.026803805
214	0x3d14307e	0.03617906
215	0x3d071028	0.032974392
216	0x80008b18	-4.9897e-41
217	0x0000cf33	7.4329e-41
218	0x8000a5c3	-5.9464e-41
219	0x800025cf	-1.3563e-41
220	0x80008641	-4.8161e-41
221	0x00001c0d	1.0063e-41
222	0x853d0b67	-8.8888316e-36
223	0x8000aa1f	-6.1028e-41
224	0x8000898c	-4.9343e-41
225	0x0000199e	9.19e-42
226	0x00007bf2	4.4463e-41
227	0x8000cb9f	-7.3045e-41
228	0x80000a22	-3.635e-42
229	0x00007f31	4.5628e-41
230	0x0000d988	7.8036e-41
231	0x80002a62	-1.5204e-41
232	0x00006d96	3.9312e-41
233	0x80014850	-1.17776e-40
234	0x0000badc	6.7033e-41
235	0x8000349d	-1.8874e-41
236	0x80000e9f	-5.245e-42
237	0x0000156f	7.689e-42
238	0x80019587	-1.45476e-40
239	0x800127d6	-1.06126e-40
240	0x8000f89e	-8.9187e-41
241	0x0000b2c4	6.4129e-41
242	0x000045f7	2.5099e-41
243	0xa4d87586	-9.387416e-17
244	0x00011d48	1.0234e-40
245	0x8000790e	-4.3426e-41
246	0x0000340c	1.8671e-41
247	0x8000833a	-4.7075e-41
248	0x00005ff0	3.4416e-41
249	0x00006c92	3.8948e-41
250	0x800073d6	-4.1554e-41
251	0x8000b01e	-6.3179e-41
252	0x000047b5	2.5724e-41
253	0x0000df2c	8.0059e-41
254	0x0000db39	7.8642e-41
255	0x024b46ad	1.4934368e-37

e_conv5.bias f4 [3]
0	0x3d2513ec	0.040302202
1	0x3c692549	0.014230081
2	0x80019e09	-1.48528e-40
