AOD-Net/snapshots/Epoch1.pth (torch, 10375 bytes, 10 tensors)

e_conv1.weight f4 [3, 3, 1, 1]
0	0x3d700739	0.058600638
1	0x3de09def	0.109676234
2	0x3e28363d	0.1642694
3	0x3d74e129	0.059785042
4	0x3dd14b10	0.10219395
5	0x3df294aa	0.11844762
6	0x3d8e55ee	0.069499835
7	0x3e31b5e3	0.1735454
8	0x3e3d5576	0.18489632

e_conv1.bias f4 [3]
0	0x3e576f41	0.21038534
1	0x3ed6fdd7	0.4199054
2	0x3ebf66d9	0.37383154

e_conv2.weight f4 [3, 3, 3, 3]
0	0x8e1928c0	-1.8878326e-30
1	0x0d09805a	4.237088e-31
2	0x8e9c2ee9	-3.8502142e-30
3	0x8bb5d519	-7.00393e-32
4	0x8e9128a4	-3.5784395e-30
5	0x8e6b4ca5	-2.900289e-30
6	0x8e9003be	-3.5502344e-30
7	0x8de0893b	-1.3838103e-30
8	0x8e1eebcc	-1.9588536e-30
9	0x0c68e08a	1.79402e-31
10	0x8e65c55a	-2.832145e-30
11	0x8ed75354	-5.3081834e-30
12	0x8ecf3519	-5.108057e-30
13	0x8e649c7a	-2.817851e-30
14	0x8ee3c022	-5.6144838e-30
15	0x8e5fd613	-2.7589945e-30
16	0x8ee01ed5	-5.5249954e-30
17	0x8ee0c9ff	-5.541478e-30
18	0x8eccfe09	-5.053451e-30
19	0x8eef8cee	-5.905376e-30
20	0x8eef9908	-5.9065413e-30
21	0x8ee0dd9b	-5.543366e-30
22	0x8ec48408	-4.8444872e-30
23	0x8ef2c4cf	-5.9847126e-30
24	0x8ea87046	-4.1523313e-30
25	0x8ef3ea61	-6.0129824e-30
26	0x8ec8295b	-4.934363e-30
27	0x80005a8f	-3.2486e-41
28	0x80002235	-1.2271e-41
29	0x000083ee	4.7327e-41
30	0x8001600a	-1.26288e-40
31	0x80010cae	-9.6384e-41
32	0x8000b395	-6.4422e-41
33	0x80003b6d	-2.1318e-41
34	0x80007895	-4.3257e-41
35	0x0000b3da	6.4519e-41
36	0x00009cf3	5.6303e-41
37	0x0000d272	7.5494e-41
38	0x00008acf	4.9795e-41
39	0x8000790d	-4.3425e-41
40	0x00005eb3	3.3972e-41
41	0x00010d7e	9.6676e-41
42	0x00009c06	5.597e-41
43	0x00006c37	3.882e-41
44	0x80008346	-4.7092e-41
45	0x80003616	-1.9402e-41
46	0x8000dd44	-7.9375e-41
47	0x0000c7d6	7.1688e-41
48	0x8000903c	-5.1742e-41
49	0x0000ed53	8.5136e-41
50	0x0001358e	1.11047e-40
51	0x000157e4	1.23365e-40
52	0x8000c7b8	-7.1646e-41
53	0x000054ca	3.0417e-41
54	0x3d3ce80d	0.04611974
55	0x3c9089c2	0.017643813
56	0x3c5b4bb3	0.013384747
57	0xbb66724f	-0.0035163348
58	0x3d2dcef2	0.042433687
59	0x3cb79254	0.022408642
60	0x3d23ab7e	0.03995847
61	0xbb626543	-0.003454522
62	0x3d3aec29	0.045635376
63	0x3b384e7c	0.0028122952
64	0x3bf4d1e6	0.007471311
65	0x3c7404da	0.014893735
66	0x3cf183ae	0.029481735
67	0xbb83fe47	-0.004028115
68	0x3d05f6e0	0.03270614
69	0x3c9ac6dd	0.018893654
70	0x3ca7cd70	0.020483702
71	0xbc96d7fc	-0.018413536
72	0xbb1bd195	-0.0023776044
73	0xbcb9f958	-0.022701904
74	0x3c3cd6c4	0.0115258135
75	0x3c94444a	0.018098969
76	0x3d3117ca	0.043235578
77	0x3c04afe1	0.008098573
78	0x3d15e1a8	0.036592156
79	0xbc8a77b6	-0.016902786
80	0x3cfcc5fc	0.030856125

e_conv2.bias f4 [3]
0	0x8e00fd9a	-1.5899323e-30
1	0x9cb6522d	-1.2064992e-21
2	0x3df5bede	0.11999296

e_conv3.weight f4 [3, 6, 5, 5]
0	0x3d1e7085	0.038681526
1	0x3c003815	0.007825871
2	0x3c7ca776	0.015420785
3	0x3cac14f2	0.021006081
4	0x3cdc5a16	0.026898425
5	0x3d310574	0.04321809
6	0x3c10cb12	0.008837478
7	0x3ca7257b	0.020403614
8	0x3d1f71b6	0.038926803
9	0x3d4908ea	0.049080767
10	0x3bb14ad5	0.005410532
11	0x3d05cde8	0.03266707
12	0x3d5f2e8f	0.05448776
13	0x3d7e4a6c	0.062082693
14	0x3bd2ee70	0.0064371154
15	0x3d1ec45d	0.038761485
16	0x3c654188	0.013992675
17	0x3c8c5a66	0.01713295
18	0x3ce4d842	0.027935151
19	0x3bfb94df	0.007677659
20	0x3c27d585	0.010243778
21	0x3d17f73c	0.037101015
22	0x3c8a4843	0.01688016
23	0x3db47741	0.088118084
24	0x3c2f7a27	0.010710276
25	0x3bfec316	0.007774721
26	0x3c49982c	0.012304347
27	0x3af4e8b3	0.0018685072
28	0xbad7a89c	-0.0016453448
29	0xbc12a841	-0.008951248
30	0x3c59ae78	0.0132862255
31	0x3d29348d	0.041309882
32	0x3ca74262	0.020417396
33	0x3b4e5c23	0.0031488023
34	0x3bd8ee9d	0.006620242
35	0xbc87b5fa	-0.016566265
36	0x3d3b9d7d	0.04580449
37	0x3ae104b7	0.0017167543
38	0xba9edf7f	-0.001212105
39	0x3c5b80a2	0.013397368
40	0x3c97fa38	0.01855193
41	0xbd3bb59e	-0.0458275
42	0xbc53aed3	-0.012920099
43	0x3d7055e3	0.058675658
44	0x3c850be1	0.016241016
45	0x3b9ee1c3	0.0048486902
46	0xbc60f3ca	-0.013729999
47	0xbc24c79e	-0.010057358
48	0xbbc37dfa	-0.0059659453
49	0xbcb79e9a	-0.022414494
50	0x3d255b6f	0.0403704
51	0x3cd83378	0.02639173
52	0x3ba83032	0.0051326985
53	0x3db38b8e	0.08766852
54	0x3d71a999	0.05899963
55	0x3cc01a91	0.023450168
56	0xbcc2689e	-0.023731526
57	0x3cea35f8	0.028590187
58	0x3b49d26b	0.0030795585
59	0x3d48316c	0.048875257
60	0x3d540d83	0.0517707
61	0x3d3d189b	0.046166044
62	0x3d08c918	0.033394903
63	0x3d4125ca	0.04715518
64	0x3a993e6e	0.0011691579
65	0x3d5cf553	0.053944897
66	0x3cb90955	0.022587458
67	0x3cb4ab53	0.02205435
68	0x3d1bff61	0.038085345
69	0x3c163421	0.009167702
70	0x3cbdbb90	0.023160726
71	0x3cc0463d	0.023470992
72	0x3d3ba90d	0.045815516
73	0xbb00b058	-0.001963636
74	0x3d1f87a5	0.03894772
75	0x0d73c878	7.512146e-31
76	0x0ed5b98f	5.268724e-30
77	0x0ec39dda	4.8223217e-30
78	0x0edd28fd	5.4520177e-30
79	0x0e8055ec	3.1637176e-30
80	0x0eb24d65	4.3954916e-30
81	0x0ead1add	4.267366e-30
82	0x0e341b4d	2.2199858e-30
83	0x0d0361d7	4.048526e-31
84	0x0e969802	3.7124233e-30
85	0x0e87ce24	3.3478576e-30
86	0x0e821a27	3.2072658e-30
87	0x0e6b2188	2.8982131e-30
88	0x0edc0a89	5.4244332e-30
89	0x8d242c8b	-5.059002e-31
90	0x0ed61f97	5.2785493e-30
91	0x0e57e53c	2.6611168e-30
92	0x0e5a585f	2.6913124e-30
93	0x0dd5ffeb	1.31887485e-30
94	0x0ec8bc09	4.9484878e-30
95	0x0ed8bb8a	5.3428705e-30
96	0x0edccfdd	5.4434352e-30
97	0x8d217fed	-4.976594e-31
98	0x0e841bd3	3.2567306e-30
99	0x0eb18c29	4.376884e-30
100	0x0000c6a5	7.126e-41
101	0x0000e0e8	8.0681e-41
102	0x0000a994	6.0833e-41
103	0x8000e765	-8.3009e-41
104	0x80000faa	-5.619e-42
105	0x80002376	-1.2721e-41
106	0x00006838	3.7387e-41
107	0x00004dd2	2.7917e-41
108	0x0000de54	7.9756e-41
109	0x00012de6	1.08301e-40
110	0x800186eb	-1.40235e-40
111	0x80000e61	-5.158e-42
112	0x80012692	-1.05672e-40
113	0x00013fc1	1.14706e-40
114	0x0000a521	5.9237e-41
115	0x00006f36	3.9895e-41
116	0x000071a2	4.0764e-41
117	0x00011234	9.8366e-41
118	0x8000d170	-7.5132e-41
119	0x0000633b	3.5597e-41
120	0x80007ead	-4.5443e-41
121	0x0000077b	2.683e-42
122	0x80003879	-2.0259e-41
123	0x800088fc	-4.9141e-41
124	0x80007915	-4.3436e-41
125	0x3d207ebb	0.03918336
126	0x3d021169	0.031754885
127	0x3d214671	0.03937382
128	0x3ca795a4	0.020457096
129	0xbab4ffb2	-0.0013809113
130	0x3a412247	0.00073674734
131	0xbbc6093e	-0.006043582
132	0x3bbf3382	0.0058349976
133	0x3c29223f	0.010323106
134	0xbb8ae956	-0.0042392416
135	0x3c20daef	0.009817823
136	0x3c9b8ae9	0.018987136
137	0x3ba2865e	0.0049598655
138	0x3a477e66	0.00076100824
139	0x3c52598e	0.012838734
140	0xbca139cb	-0.019680878
141	0xbb8dc744	-0.004326733
142	0xbcd82c31	-0.02638826
143	0x3cc972e4	0.024590917
144	0x3b6d96a2	0.0036253114
145	0x3b9e5dee	0.0048329746
146	0x3c7ac15b	0.015304889
147	0x3ce96bc0	0.028493762
148	0x3d0fbeac	0.03509395
149	0x3cf3783c	0.029720418
150	0x3cbaab07	0.02278663
151	0x3c864c40	0.01639378
152	0x3d395be9	0.045253668
153	0x3d583463	0.052784335
154	0x3bb1d872	0.0054274136
155	0x3c1f1baa	0.0097111855
156	0x381d691d	3.752961e-05
157	0x3cde0ece	0.027106669
158	0x3cd634ea	0.026148278
159	0x3be1366f	0.006872944
160	0x3b994f75	0.0046786615
161	0x3d1da33b	0.038485747
162	0xbc38714a	-0.011257479
163	0x3b8f6d55	0.004377047
164	0x3c914b35	0.017736057
165	0x3c096a9f	0.008387237
166	0x3d09918d	0.033586074
167	0x3b3a42ef	0.0028421243
168	0x3cc9c300	0.024629116
169	0x3cbe10e4	0.023201413
170	0x3d1a4bc3	0.03766991
171	0x3c62f920	0.013853341
172	0x3c4cb0c6	0.012493318
173	0x3c8c0c60	0.017095745
174	0xbcdb9e03	-0.026808744
175	0xbbdf03c8	-0.0068058707
176	0xbc4bf3d5	-0.012448271
177	0x3cb39873	0.02192328
178	0x3c1c8a0f	0.0095544
179	0xbb373aa8	-0.0027958546
180	0x3cc50910	0.024052173
181	0xbc1bfe6e	-0.00952111
182	0x3c206459	0.00978955
183	0xbabd37ab	-0.0014436146
184	0xba3eebed	-0.00072830805
185	0x3c59c979	0.013292664
186	0x3bedbc40	0.007255107
187	0x3b5fc539	0.0034144653
188	0xbbbf8714	-0.00584496
189	0x3c67c24c	0.014145445
190	0x3d0a8ef8	0.033827752
191	0x3c22e605	0.009942536
192	0x3cf8b0c8	0.030357733
193	0x3c2dd27d	0.010609266
194	0xbc294b23	-0.010332855
195	0x3c97011f	0.018433152
196	0xbc32cbb6	-0.010912826
197	0x3bb48fbb	0.005510298
198	0x3c71e1be	0.014763294
199	0xbb8dfd5d	-0.004333182
200	0x3ccb8e45	0.024848113
201	0x3bf0d7cb	0.0073499433
202	0x388c6e3a	6.6962515e-05
203	0x3d100847	0.035164144
204	0x3ca8ad89	0.02059056
205	0x3d111655	0.035421688
206	0x3ca73af5	0.020413855
207	0x3cef6925	0.029224942
208	0x3d29cbf5	0.041454274
209	0x3d895bd9	0.06706972
210	0x3d5a2530	0.05325812
211	0xbc86ab37	-0.016439063
212	0x3d1df8b4	0.03856726
213	0x3cfc3691	0.030787738
214	0x3d1b14d1	0.03786165
215	0x3cd100a1	0.025512995
216	0x3cd208fd	0.025639052
217	0x3ce0a57a	0.027422655
218	0x398fdf9c	0.00027441687
219	0xbc076ec2	-0.008266153
220	0x3d300b68	0.042979628
221	0x3d357824	0.04430403
222	0x3d295b2d	0.041346718
223	0x3d53dd9f	0.051725026
224	0x3d42115f	0.047379848
225	0x0eab1882	4.2178355e-30
226	0x0deded28	1.4663346e-30
227	0x0ead0ce5	4.266021e-30
228	0x0eb67341	4.497745e-30
229	0x0ec99ccb	4.970131e-30
230	0x0cca2093	3.1142633e-31
231	0x0e4940a0	2.4806279e-30
232	0x0ec0b08f	4.7501674e-30
233	0x0da35d83	1.0068163e-30
234	0x0ebc3c86	4.640386e-30
235	0x0eaf0a61	4.3150825e-30
236	0x0e5734a9	2.6526151e-30
237	0x0ebc61e9	4.6439862e-30
238	0x0e504f0a	2.5676035e-30
239	0x0d81630e	7.974085e-31
240	0x0ec796ff	4.920269e-30
241	0x0ec90e40	4.9564048e-30
242	0x0ec6fd6f	4.9054816e-30
243	0x0e913e54	3.580528e-30
244	0x8d31f4cf	-5.4837014e-31
245	0x0e71cf40	2.980533e-30
246	0x0e8b1935	3.429042e-30
247	0x0e895eb4	3.3864303e-30
248	0x0e91b3b8	3.5918323e-30
249	0x0d4cf759	6.3160087e-31
250	0x0000e7ef	8.3202e-41
251	0x00015c85	1.25025e-40
252	0x00000ad2	3.882e-42
253	0x80018c36	-1.42134e-40
254	0x00001626	7.945e-42
255	0x00007c7a	4.4654e-41

e_conv3.bias f4 [3]
0	0x3d35956c	0.044331953
1	0x3d15573c	0.036460146
2	0x3d53c9b9	0.05170605

e_conv4.weight f4 [3, 6, 7, 7]
0	0x0d3b3791	5.769071e-31
1	0x0ddf25ff	1.3752583e-30
2	0x0e18a179	1.8813193e-30
3	0x0dfb518c	1.5488701e-30
4	0x0db44f07	1.1112382e-30
5	0x0d7e0432	7.8274843e-31
6	0x0dfa57e4	1.5428598e-30
7	0x0d863285	8.27055e-31
8	0x0e142d0b	1.8264096e-30
9	0x0e04f7ae	1.638951e-30
10	0x0dd62b06	1.3199126e-30
11	0x0d38e1fe	5.6971406e-31
12	0x0d723c56	7.4644634e-31
13	0x0e0d2997	1.7399617e-30
14	0x0df61d78	1.5168015e-30
15	0x0bea2b9d	9.0199143e-32
16	0x0d6cd533	7.2979744e-31
17	0x0dd2976a	1.2978701e-30
18	0x0e0e3649	1.7528989e-30
19	0x0e1ac28d	1.9075638e-30
20	0x0dee5b3e	1.4689848e-30
21	0x0e06d2bf	1.6618246e-30
22	0x0df0106c	1.4795095e-30
23	0x0e1938e9	1.8886107e-30
24	0x0d387463	5.6839473e-31
25	0x0df655d3	1.5181582e-30
26	0x8c11c365	-1.1229193e-31
27	0x0daef326	1.0782114e-30
28	0x0dc25d59	1.1978646e-30
29	0x0dde9e13	1.3719861e-30
30	0x8c893429	-2.1139585e-31
31	0x0dfef207	1.5712225e-30
32	0x0d8f10ce	8.817101e-31
33	0x0dd91cb0	1.3380564e-30
34	0x0d23d7e9	5.0488145e-31
35	0x0d041cc4	4.0710266e-31
36	0x0dea8899	1.4454248e-30
37	0x0e0b6a1d	1.7184164e-30
38	0x0e1a2cf4	1.900361e-30
39	0x0e04aea1	1.6354337e-30
40	0x0e1a7514	1.9038337e-30
41	0x0e0d3f70	1.7410136e-30
42	0x0e0afcee	1.7131594e-30
43	0x0d4bf084	6.2843715e-31
44	0x8c4be809	-1.5708377e-31
45	0x0e1a39a2	1.9009715e-30
46	0x0e19c21f	1.8952172e-30
47	0x0e087216	1.6818225e-30
48	0x0dca7652	1.2477696e-30
49	0x8000aea1	-6.2645e-41
50	0x00006cfa	3.9093e-41
51	0x0000c874	7.1909e-41
52	0x00009943	5.498e-41
53	0x0000e584	8.2335e-41
54	0x000122de	1.04343e-40
55	0x80009d28	-5.6377e-41
56	0x000038ea	2.0417e-41
57	0x00000a14	3.615e-42
58	0x8000a954	-6.0743e-41
59	0x800031f3	-1.7918e-41
60	0x0000deea	7.9966e-41
61	0x0000423e	2.3763e-41
62	0x80018dbe	-1.42683e-40
63	0x8000688a	-3.7502e-41
64	0x0001f853	1.80917e-40
65	0x0000cbb1	7.3071e-41
66	0x000035c4	1.9287e-41
67	0x0000d79a	7.7343e-41
68	0x0000c4a7	7.0546e-41
69	0x00004603	2.5115e-41
70	0x00001c7d	1.022e-41
71	0x8000d3ea	-7.602e-41
72	0x000018ce	8.898e-42
73	0x8000c34c	-7.006e-41
74	0x00000eae	5.266e-42
75	0x8000dc97	-7.9133e-41
76	0x00007855	4.3167e-41
77	0x00007bec	4.4455e-41
78	0x8000bc22	-6.749e-41
79	0x800068b2	-3.7558e-41
80	0x80011584	-9.9554e-41
81	0x0000956e	5.3605e-41
82	0x0001437f	1.16049e-40
83	0x8000a45b	-5.896e-41
84	0x8000ae3e	-6.2506e-41
85	0x0000e62f	8.2574e-41
86	0x0000db49	7.8665e-41
87	0x8000269f	-1.3855e-41
88	0x0001072a	9.4405e-41
89	0x0001310d	1.09432e-40
90	0x00000740	2.601e-42
91	0x0000cf7f	7.4436e-41
92	0x00004a58	2.667e-41
93	0x800119a2	-1.01031e-40
94	0x8000444b	-2.4499e-41
95	0x8000e4f0	-8.2127e-41
96	0x00003f0e	2.262e-41
97	0x0001098c	9.526e-41
98	0xbb2eb1f7	-0.0026656368
99	0x3c727781	0.014799
100	0x3c1cddd2	0.00957437
101	0xba5aa24a	-0.0008340223
102	0xbcad1e6c	-0.02113267
103	0xbb986703	-0.004650952
104	0x3cdfc8b8	0.02731739
105	0x3c222a08	0.009897716
106	0x3c090eff	0.008365392
107	0xbbcb00db	-0.0061951703
108	0x3ca24dfc	0.019812576
109	0xbcbbeaab	-0.022939047
110	0x3c027dca	0.007964561
111	0xbb69f220	-0.0035697296
112	0x3d2f514f	0.04280215
113	0xbc9df4cf	-0.019281773
114	0xbc456b73	-0.012049544
115	0xb91b1b71	-0.00014792175
116	0x3d107901	0.03527165
117	0x3c375ed5	0.011192043
118	0x3c339f6a	0.0109633
119	0xbc695e83	-0.014243725
120	0x3ca49aa6	0.020093273
121	0x3bb9e4d1	0.005673029
122	0x3c0dc094	0.008651871
123	0x3d1c398d	0.038140822
124	0x3c33b3cb	0.010968159
125	0xbc970f32	-0.018439863
126	0x3cd53a84	0.026028879
127	0x3c219fe6	0.009864783
128	0x3d27241c	0.04080592
129	0x3c110056	0.008850178
130	0x3c05a9a0	0.0081581175
131	0xbc9d942f	-0.019235699
132	0xbb99bf81	-0.0046920185
133	0xbc4fdcfb	-0.012686963
134	0xbc8b03bb	-0.016969552
135	0xbb3b5a8f	-0.0028587913
136	0x3d0bf5d1	0.034169976
137	0x3d0788ad	0.03308933
138	0x3cbb5558	0.022867844
139	0x3cde8633	0.0271636
140	0x3c98d9ef	0.018658606
141	0x3adddcc0	0.001692675
142	0xbc58f377	-0.01324164
143	0x3c167678	0.009183519
144	0x3cd8e053	0.026474154
145	0xbc811e1e	-0.015761431
146	0x3beb4155	0.007179419
147	0x3c419657	0.011815629
148	0x3b3d3c44	0.0028875032
149	0x3c757648	0.014981814
150	0x3d0f74ce	0.035023503
151	0x3d74da9e	0.059778802
152	0x3d22afcb	0.03971843
153	0x3cf83c78	0.030302271
154	0x3d04defa	0.03243921
155	0x3cb51e8d	0.022109294
156	0x3baf847f	0.005356371
157	0x3ca1e164	0.019760795
158	0x3ccb1cd4	0.02479402
159	0x3c49c4e6	0.012315011
160	0x3d12734a	0.03575448
161	0x3d43ed97	0.047834005
162	0x3c0b9591	0.008519546
163	0xbba3789b	-0.0049887425
164	0x3d3ff74c	0.0468667
165	0x3b155318	0.0022785123
166	0x3d1cb7f6	0.038261376
167	0x3ccced2c	0.025015436
168	0x3c9428a4	0.018085785
169	0x3ce37290	0.027764589
170	0x3c6633a6	0.0140504
171	0x3cb67b11	0.02227548
172	0x3c821fe1	0.015884342
173	0x3cfd30ee	0.03090712
174	0x3ca222e1	0.019792022
175	0x3b09565d	0.0020956018
176	0xbbb7dcaf	-0.0056110243
177	0x3caec31b	0.021333268
178	0x3bd44157	0.0064775157
179	0xbb509fe6	-0.0031833588
180	0x39a8f19a	0.00032223464
181	0x3d0393e9	0.03212348
182	0x3c8f3049	0.017479079
183	0x3b3e92a9	0.0029079115
184	0x3c9b10e7	0.018928958
185	0x3c05dd8c	0.008170497
186	0x3d1a7ce6	0.03771677
187	0x3cf62702	0.030047897
188	0x3d2ea133	0.0426342
189	0x3c62f378	0.013851993
190	0x3b23d537	0.0024998912
191	0x3c822488	0.01588656
192	0x3d278fdb	0.040908676
193	0xbc2142a6	-0.00984255
194	0x3d04566a	0.032308973
195	0x3ccaf2cd	0.02477398
196	0x3c07fdb4	0.008300234
197	0x3c1b7e85	0.009490614
198	0x3cf987c7	0.030460251
199	0x3b0d66b8	0.0021576118
200	0x3d598926	0.05310931
201	0x3d523378	0.051318616
202	0x3c601db5	0.013678958
203	0xbcaa8de4	-0.020819612
204	0x3cf538e2	0.02993435
205	0x3d2037d3	0.039115738
206	0x3cd70704	0.026248462
207	0x3c8bf1d1	0.01708308
208	0x3c9ecc41	0.019384505
209	0x3cd012d0	0.025399595
210	0x3c260a8e	0.010134352
211	0x3c6dea34	0.01452117
212	0x3d12c673	0.035833787
213	0x3d57c632	0.05267925
214	0x3cc6481d	0.024204308
215	0x3cb7f061	0.022453489
216	0xbc9ebc45	-0.019376883
217	0xbc159000	-0.009128571
218	0x3baa1dcc	0.0051915403
219	0x3cb916b7	0.02259384
220	0x3d06a557	0.032872524
221	0x3d2e4034	0.042541698
222	0xb9b846e6	-0.00035148038
223	0x3cbb7deb	0.02288719
224	0x3bc01ce0	0.005862817
225	0x3d72d012	0.059280463
226	0x3b6b56cb	0.0035909887
227	0xbc2c9325	-0.010533129
228	0xba84e972	-0.0010140373
229	0x3d04f6d7	0.032461967
230	0x3cd11400	0.025522232
231	0x3c24868d	0.010041845
232	0x3cfbbc19	0.03072934
233	0x3bdc41a9	0.0067216945
234	0xbc82bd97	-0.015959544
235	0xbc1b51c9	-0.009479948
236	0x3d5ea5e1	0.054357413
237	0x3d1444cb	0.03619842
238	0xbc1c53af	-0.009541436
239	0xbbcc603c	-0.006237058
240	0x3d05c768	0.03266087
241	0x3c6695f2	0.014073836
242	0xbb4aedf5	-0.0030964587
243	0x3c12bce4	0.008956168
244	0x3c315790	0.010824099
245	0xbd09d817	-0.033653345
246	0x3c93e4e2	0.018053476
247	0x3b674c34	0.0035293223
248	0x3cb2480a	0.021762867
249	0x3d38b665	0.04509582
250	0x3cd937b9	0.026515828
251	0xbcbe32e6	-0.02321763
252	0x3d13f1a3	0.036119115
253	0x3d25b034	0.040451244
254	0xbc34fd23	-0.011046681
255	0x3c181b52	0.009283857

e_conv4.bias f4 [3]
0	0xbc2daf7b	-0.01060092
1	0x39c485bb	0.0003748367
2	0x3c108d9c	0.008822825

e_conv5.weight f4 [3, 12, 3, 3]
0	0x3c2666da	0.010156358
1	0x3c85db08	0.016339794
2	0x3d154acb	0.03644828
3	0x3db304e2	0.08741166
4	0x3adcb363	0.0016838129
5	0x3d2608b1	0.040535633
6	0xbb838d5e	-0.004014655
7	0x3cf2ed56	0.029654186
8	0x3d367215	0.04454239
9	0x3c6b6613	0.014367598
10	0x3d263a8f	0.04058319
11	0x3c918060	0.01776141
12	0x3c822bc5	0.015890012
13	0x3bfc0761	0.0076913093
14	0x3c9218d4	0.017834105
15	0xb7aff18e	-2.0974108e-05
16	0xbc208eeb	-0.009799699
17	0xbc996e2e	-0.018729296
18	0x3d330096	0.04370173
19	0x3d2c0708	0.041998893
20	0x3c3ce15d	0.01152834
21	0x3c80282c	0.015644155
22	0x3cd1d608	0.025614753
23	0xbb908ef0	-0.0044115707
24	0x3ba02001	0.0048866277
25	0xbb2d4629	-0.0026439524
26	0x3d8b886b	0.06813129
27	0x0dbd6bd8	1.1673987e-30
28	0x0e9478a2	3.6600982e-30
29	0x0e4b1241	2.503047e-30
30	0x0e28551a	2.0748574e-30
31	0x0e2d7f1b	2.1385095e-30
32	0x0e2fe03b	2.1678378e-30
33	0x0e0aa322	1.7088359e-30
34	0x0e830c23	3.230568e-30
35	0x0d857dff	8.22709e-31
36	0x800035b7	-1.9269e-41
37	0x00004503	2.4757e-41
38	0x00011726	1.0014e-40
39	0x00006a33	3.8097e-41
40	0x8001ce74	-1.65897e-40
41	0x00013c84	1.13544e-40
42	0x0000b047	6.3236e-41
43	0x0000d388	7.5883e-41
44	0x80004a52	-2.6661e-41
45	0xbc8350c8	-0.01602973
46	0xbcc94b63	-0.02457208
47	0x3d2341c2	0.039857633
48	0x3bb3e4cb	0.0054899207
49	0xbce1fa11	-0.027585061
50	0xbc18b87c	-0.009321328
51	0x3b55fa65	0.0032650467
52	0x3d2c0a76	0.042002164
53	0x3b7ddce3	0.0038736395
54	0x3c969849	0.018383162
55	0x3d1bcb66	0.038035773
56	0xba843925	-0.0010087831
57	0x3c4a512c	0.012348454
58	0x3d4c4614	0.04987152
59	0x3d04022f	0.032228645
60	0x3cae01c0	0.021241069
61	0x3ca54ff2	0.020179722
62	0x3cd745a9	0.026278334
63	0x3d36eebb	0.044661265
64	0x3d0e53c0	0.03474784
65	0x3b5c4f17	0.0033616477
66	0x3bb5c56a	0.005547215
67	0xbcf9c638	-0.030490026
68	0x3c6578f1	0.014005885
69	0x3c152724	0.00910357
70	0x3d216d8c	0.039411113
71	0x3bd0ef51	0.006376185
72	0xbb577518	-0.003287619
73	0x3a277170	0.0006387448
74	0xbcf82de4	-0.03029532
75	0x3d64b336	0.05583497
76	0x3cbdccb2	0.023168895
77	0x3d0659e2	0.032800563
78	0x3b8d95f4	0.0043208543
79	0x3c252192	0.010078805
80	0x3d83b5a1	0.06431127
81	0x3c1bee88	0.0095173195
82	0x3d1a12b0	0.037615478
83	0xbcef768f	-0.029231338
84	0x3ce27937	0.02764569
85	0x3d449d2f	0.048001464
86	0x3d2cc6a5	0.04218163
87	0xbce89c2f	-0.028394787
88	0x3b04c516	0.0020259074
89	0x3d1d11e2	0.038347133
90	0x3a883beb	0.0010393834
91	0xbadc1dbd	-0.0016793531
92	0x3aae16e9	0.0013281974
93	0x3b457a49	0.0030132702
94	0x3a50901b	0.00079560437
95	0xbb0659d4	-0.002050032
96	0x3b581c6d	0.0032975927
97	0xbbedba5e	-0.0072548827
98	0x3a58a3a3	0.000826413
99	0x3bd3de72	0.0064657265
100	0x3a58bff5	0.000826835
101	0x3d158d3a	0.036511637
102	0x3b476d8f	0.0030430292
103	0x3c915092	0.017738614
104	0x3ccae874	0.024769045
105	0x3c7a3361	0.015271039
106	0x3b5e8769	0.0033955222
107	0xba06dc10	-0.0005144486
108	0x3c8e7787	0.01739098
109	0x3d459a81	0.04824305
110	0x3c08049a	0.008301878
111	0xbb9fb0ff	-0.0048733945
112	0x3cc55068	0.024086192
113	0x3c11277f	0.008859514
114	0x3d2cf77a	0.0422282
115	0x3c3d18f7	0.011541597
116	0x3d5f02d7	0.054446068
117	0xbd14756c	-0.036244795
118	0x39918c96	0.000277613
119	0x3b9e7dc9	0.004836772
120	0xbbb69dd7	-0.005573015
121	0xbb7234da	-0.0036957772
122	0x3c598804	0.013277058
123	0x3c47112b	0.012150089
124	0xbc67a23c	-0.014137801
125	0x3c614556	0.013749441
126	0x3c17c7eb	0.009263973
127	0x3d0376ed	0.03209584
128	0x3d347009	0.044052158
129	0x3d70a35a	0.058749534
130	0xbcf46a7a	-0.029835928
131	0x3c645efc	0.013938662
132	0x3cd8293a	0.026386846
133	0x3bf35105	0.0074254298
134	0x3ce2c00e	0.02767947
135	0x8c73af8f	-1.8772869e-31
136	0x0e4790c5	2.4598348e-30
137	0x8d159fe3	-4.6106627e-31
138	0x0e926abc	3.609456e-30
139	0x0e893b49	3.3830197e-30
140	0x0d9ebc13	9.782779e-31
141	0x0e84cd80	3.27384e-30
142	0x0e8a5218	3.409868e-30
143	0x8ced0fcb	-3.6525137e-31
144	0x0000b5f9	6.528e-41
145	0x0000f54f	8.8e-41
146	0x8000aa78	-6.1153e-41
147	0x00003075	1.7383e-41
148	0x00000525	1.846e-42
149	0x000054af	3.0379e-41
150	0x80003127	-1.7633e-41
151	0x0000be68	6.8305e-41
152	0x80016b0f	-1.30241e-40
153	0x3ce2724b	0.02764239
154	0x39f02859	0.00045806429
155	0xbd2b5952	-0.04183323
156	0xbcc5ed10	-0.024160892
157	0x3d1e7129	0.038682137
158	0x3cb6d2ec	0.022317372
159	0x3c8edd1b	0.017439416
160	0xbc232e62	-0.009959789
161	0xbcdaffa8	-0.026733235
162	0xbc171ec9	-0.009223648
163	0x3cbca0ee	0.023025956
164	0x3b806f73	0.003919536
165	0x3cf1dce5	0.029524276
166	0xbc8969b2	-0.016774032
167	0x3cefcbdc	0.029272012
168	0x3c1c01c3	0.009521904
169	0x3ccee474	0.02525542
170	0xbc37fbf8	-0.011229508
171	0xbc052dc9	-0.008128592
172	0x3bfd3719	0.0077275154
173	0xbc19d9a3	-0.009390268
174	0x3b6698dc	0.0035186326
175	0x3c562a88	0.013071664
176	0xbbe676cd	-0.007033205
177	0x3bd48071	0.006485038
178	0x3d0cd898	0.034386247
179	0x3b446068	0.002996469
180	0xbc54df52	-0.012992697
181	0x3cf138be	0.029446002
182	0x3c8289b4	0.015934803
183	0x3ce81baa	0.028333504
184	0xbbcdb802	-0.006278039
185	0x3cb45652	0.022013817
186	0xbb88decc	-0.00417695
187	0x3d4e1712	0.05031497
188	0x38a9e3b2	8.1009595e-05
189	0x3d38ca2b	0.045114677
190	0x3c235112	0.009968059
191	0x3cb97f40	0.022643685
192	0xbbb1f029	-0.0054302406
193	0x3c3bafde	0.011455504
194	0x3d077f29	0.033080254
195	0x3d35294c	0.044228837
196	0x3cdd90e8	0.027046636
197	0x3a8a568a	0.0010554355
198	0x3a98cfdc	0.0011658627
199	0x3aa52e5d	0.0012602318
200	0x3b2bacb4	0.0026195468
201	0x3a9ef875	0.0012128489
202	0xbc3738a6	-0.01118294
203	0x3afc8ff1	0.0019268972
204	0x3aab9fa9	0.0013093847
205	0x3aa55628	0.0012614178
206	0x3a925e3c	0.0011167
207	0x3ca53d55	0.020170847
208	0x3ce2a3d9	0.02766602
209	0xbc36f268	-0.011166193
210	0x3ccc666f	0.024951188
211	0xbc019852	-0.007909851
212	0x3d07fa86	0.033197902
213	0x3cdc7d7c	0.026915304
214	0x3d13d8da	0.036095478
215	0x3d073767	0.03301182
216	0x3c969e98	0.01838617
217	0x3c9c638d	0.019090438
218	0x3c97947e	0.018503424
219	0x3c98e872	0.018665526
220	0x3c9f7f00	0.019469738
221	0x3c99f16e	0.01879188
222	0x3c95dafe	0.0182929
223	0x3c9ba52c	0.018999659
224	0x3c96f05b	0.018425157
225	0x3c67cf0c	0.014148485
226	0x3c6de787	0.014520532
227	0x3c68b57f	0.014203428
228	0x3c6a41b8	0.014297895
229	0x3c7140c9	0.014724919
230	0x3c6b3e2d	0.014358086
231	0x3c6711df	0.014103382
232	0x3c6d30e1	0.014476986
233	0x3c681d8b	0.0141672
234	0x3c8b80ec	0.017029248
235	0x3c902cce	0.01759949
236	0x3c8c45a9	0.01712306
237	0x3c8d5f00	0.017257214
238	0x3c92b49d	0.017908389
239	0x3c8e3392	0.017358575
240	0x3c8aeadc	0.016957693
241	0x3c8f9af2	0.017529938
242	0x3c8bc99d	0.01706391
243	0x0e146201	1.8289596e-30
244	0x0e24ebaf	2.0328038e-30
245	0x0e2c46b3	2.1234677e-30
246	0x0e895ffc	3.3865537e-30
247	0x0eaad1c4	4.2110233e-30
248	0x0ea6e7ef	4.1145503e-30
249	0x0e9d7fcd	3.8826556e-30
250	0x0ea22cc1	3.997918e-30
251	0x0e8baff1	3.443557e-30
252	0x00009bf6	5.5948e-41
253	0x80015428	-1.22025e-40
254	0x000020fb	1.1831e-41
255	0x0000ce41	7.399e-41

e_conv5.bias f4 [3]
0	0x3cfa2654	0.030535854
1	0x3c19c322	0.009384902
2	0x3c2ab80e	0.010419859
