AOD-Net/snapshots/Epoch2.pth (torch, 10375 bytes, 10 tensors)

e_conv1.weight f4 [3, 3, 1, 1]
000000 ba 75 c3 3c 25 ed e9 3d 48 b2 3a 3e 5d 93 d2 3c
       0.023859847 0.11422185 0.18232071 0.025705034
000010 77 2b d6 3d 6d fb 09 3e c6 08 0f 3d 5d f1 35 3e
       0.10457509 0.13474818 0.034920476 0.17767854
000020 af a1 4f 3e
       0.20276521

e_conv1.bias f4 [3]
000000 a9 fe 53 3e 9f 9f d2 3e a0 82 bd 3e
       0.20702614 0.41137406 0.3701372

e_conv2.weight f4 [3, 3, 3, 3]
000000 a8 c5 15 9a 80 fc 16 9a e5 68 16 9a 4d 16 16 9a
       -3.0972143e-23 -3.122324e-23 -3.1104006e-23 -3.1037287e-23
000010 14 c6 17 9a 8b ed 17 9a b6 f0 15 9a 90 5c 22 9a
       -3.1386074e-23 -3.1417954e-23 -3.1006923e-23 -3.3575586e-23
000020 e0 ba 1a 9a 63 a7 cd 9a 4c c1 ce 9a 2c e8 cd 9a
       -3.199741e-23 -8.505644e-23 -8.551189e-23 -8.5161107e-23
000030 3f 9d cd 9a 9e ee cd 9a 36 e2 cd 9a c4 6f cd 9a
       -8.504006e-23 -8.517152e-23 -8.5151476e-23 -8.496658e-23
000040 e1 c9 cd 9a bd a7 cd 9a 40 b1 e0 9a 3f 07 e1 9a
       -8.5112166e-23 -8.505701e-23 -9.293059e-23 -9.3069526e-23
000050 a3 f3 e0 9a 5f 89 e0 9a ab de e0 9a fe d3 e0 9a
       -9.3037845e-23 -9.2866164e-23 -9.300397e-23 -9.298672e-23
000060 ed 43 e0 9a 8f a1 e0 9a 4f a7 e0 9a f4 f7 d6 9f
       -9.275397e-23 -9.290524e-23 -9.291453e-23 -9.104273e-20
000070 f5 99 b6 9f 74 b5 b7 9f 6e 90 c9 9f 35 b0 b6 9f
       -7.73347e-20 -7.7803704e-20 -8.536575e-20 -7.737151e-20
000080 ef f1 b9 9f 8c 4f d2 9f a9 41 c0 9f e0 e3 c6 9f
       -7.875079e-20 -8.907006e-20 -8.142379e-20 -8.423325e-20
000090 cb 8c 14 a8 d9 1b 0b a8 0d a8 0b a8 62 e3 12 a8
       -8.24618e-15 -7.7220885e-15 -7.75249e-15 -8.153934e-15
0000a0 6b 53 0f a8 9e 4e 05 a8 38 08 12 a8 73 ea 10 a8
       -7.956183e-15 -7.4000305e-15 -8.10641e-15 -8.044444e-15
0000b0 3a 10 0a a8 b1 a5 60 aa c0 fa 51 aa c1 b2 52 aa
       -7.6640574e-15 -1.9952682e-13 -1.8649925e-13 -1.8713765e-13
0000c0 ef 46 58 aa 84 08 4f aa a4 ca 4d aa 61 83 5d aa
       -1.9209264e-13 -1.8388248e-13 -1.8277963e-13 -1.9674324e-13
0000d0 0e 82 60 aa 18 f9 56 aa f5 88 39 3d 44 9b 8e 3c
       -1.9940318e-13 -1.909344e-13 0.045296628 0.01740802
0000e0 df 72 5a 3c 83 95 56 bb c0 b3 29 3d a9 12 b4 3c
       0.013333051 -0.0032742925 0.04143119 0.021981554
0000f0 c5 0a 20 3d fd ad 5e bb 0c a5 36 3d 5f 6c 0e 3a
       0.03907277 -0.0033978217 0.044590995 0.00054330187
000100 a4 9e a4 3b 86 ff 4a 3c 8a 7f da 3c 88 32 d1 bb
       0.0050237942 0.012390023 0.026672143 -0.0063841976
000110 29 31 f4 3c 54 0d 85 3c 52 fa 90 3c 5e b4 a7 bc
       0.029808598 0.016241707 0.017697487 -0.020471748
000120 ab 2a 4e bb 2a 89 be bc c5 12 2c 3c 62 49 8a 3c
       -0.0031458538 -0.023258764 0.010502522 0.016880695
000130 8e 02 2a 3d 59 70 e5 3b 38 89 0f 3d ce 36 91 bc
       0.041506343 0.0070019183 0.03504297 -0.017726328
000140 bd 9e f0 3c
       0.029372567

e_conv2.bias f4 [3]
000000 1b 07 55 9b 69 55 b4 af 81 80 ea 3d
       -1.7621243e-22 -3.2802497e-10 0.114502914

e_conv3.weight f4 [3, 6, 5, 5]
000000 44 7c 24 3d 9b 1c 1c 3c f7 7a 8a 3c ab b8 b7 3c
       0.04015757 0.009528304 0.016904337 0.022426924
000010 e5 43 e9 3c 70 60 36 3d 90 9c 2b 3c 79 4d b2 3c
       0.028474757 0.044525564 0.010474339 0.021765457
000020 2f b8 23 3d 9d 7b 4d 3d c4 34 f0 3b 1a 8a 0a 3d
       0.039970573 0.050166715 0.007330509 0.03382311
000030 09 10 62 3d d7 4f 80 3d 80 c9 06 3c 38 cf 23 3d
       0.055191074 0.06265228 0.008226752 0.03999254
000040 0b 61 7c 3c 0a 03 97 3c 43 f5 ed 3c f9 ae 19 3c
       0.015403996 0.018434066 0.029047614 0.009380096
000050 a9 9a 43 3c 7d bc 1b 3d bd 5f 94 3c e6 64 b4 3d
       0.011938729 0.038021553 0.018112058 0.08808307
000060 5f 0d 4a 3c ad e3 f3 3b 51 d6 3e 3c cf d4 a5 3a
       0.0123322895 0.0074429126 0.011647777 0.0012651923
000070 f7 11 0e bb 05 78 16 bc 52 01 52 3c 8e db 24 3d
       -0.0021678188 -0.009183888 0.012817698 0.040248446
000080 1c 22 a0 3c 00 07 25 3b 35 be c8 3b cb f7 88 bc
       0.019547515 0.0025181174 0.00612619 -0.01671972
000090 3a e3 36 3d d4 07 89 3a 31 c1 ef ba 81 35 51 3c
       0.044650294 0.0010454603 -0.0018291828 0.012769104
0000a0 5c ed 92 3c 41 ef 3b bd ab 35 5c bc 46 ab 6a 3d
       0.017935447 -0.045882467 -0.01344053 0.057292245
0000b0 4c e6 7e 3c 44 ea 8f 3b dc a1 68 bc cf 34 2e bc
       0.015557837 0.0043919403 -0.0141987465 -0.010632708
0000c0 f8 f4 d6 bb 0f 40 b9 bc 07 1a 28 3d 73 79 dc 3c
       -0.0065599643 -0.022613553 0.041040447 0.02691338
0000d0 5e c6 be 3b 35 0e b3 3d c4 07 73 3d b5 9a c6 3c
       0.005821987 0.08742944 0.059333578 0.024243692
0000e0 a7 ad b9 bc 00 5f ed 3c 22 fe 77 3b f1 bb 49 3d
       -0.022665812 0.028975964 0.0037840684 0.0492515
0000f0 f0 b1 55 3d 40 f4 3d 3d 76 02 0a 3d d5 be 41 3d
       0.052171648 0.046375513 0.033693753 0.047301132
000100 94 09 06 3b fc 43 5e 3d c7 89 bc 3c 5d bf b7 3c
       0.0020452486 0.054264054 0.023014916 0.022430116
000110 3b d0 1c 3d ec 57 22 3c 4b 0a c3 3c 95 54 c3 3c
       0.03828452 0.0099086575 0.023808619 0.023844043
000120 4a de 3b 3d f3 bb ad ba 6b 1c 21 3d 5a 1b c4 97
       0.04586629 -0.0013254866 0.039333742 -1.2673108e-24
000130 cd f9 3a 98 d8 7b 06 99 23 5d 9d 98 be 8d bd 98
       -2.4166054e-24 -6.952648e-24 -4.0677593e-24 -4.8998478e-24
000140 66 55 15 99 ff d3 e4 97 03 53 05 18 b8 ab b9 97
       -7.7203655e-24 -1.478767e-24 1.7231757e-24 -1.1998693e-24
000150 35 fe 0a 99 07 52 c2 97 1c c9 c9 98 9f 9a 81 98
       -7.1857695e-24 -1.2557663e-24 -5.216035e-24 -3.3501846e-24
000160 da fd a0 98 d2 00 cd 97 a9 97 c7 98 c6 49 ff 97
       -4.1615355e-24 -1.3248022e-24 -5.159343e-24 -1.6497612e-24
000170 1d 0b 12 98 ed 90 b7 97 b8 43 ff 98 bc 7c 46 98
       -1.8875668e-24 -1.1862682e-24 -6.5984334e-24 -2.5653875e-24
000180 e6 17 95 98 b8 5b ad 97 58 76 dc 97 b1 ed 15 99
       -3.853973e-24 -1.1203016e-24 -1.4247041e-24 -7.751121e-24
000190 40 19 00 80 74 0b 00 80 f4 87 00 80 ed 99 00 80
       -9.058e-42 -4.109e-42 -4.8771e-41 -5.5218e-41
0001a0 cd 85 00 80 83 3d 00 80 43 2c 00 80 eb a3 00 80
       -4.7999e-41 -2.2066e-41 -1.5878e-41 -5.8803e-41
0001b0 b8 b9 00 80 47 a2 00 80 d8 07 00 80 6c 66 00 80
       -6.6623e-41 -5.8214e-41 -2.814e-42 -3.6742e-41
0001c0 bb 8d 00 80 4b a9 00 80 5d 5a 00 80 2c 34 00 80
       -5.0843e-41 -6.0731e-41 -3.2416e-41 -1.8716e-41
0001d0 c2 51 00 80 5c 7f 00 80 a4 90 00 80 0e 81 00 80
       -2.9329e-41 -4.5688e-41 -5.1887e-41 -4.6296e-41
0001e0 32 13 00 80 bf 23 00 00 92 66 00 80 91 5f 00 80
       -6.886e-42 1.2823e-41 -3.6795e-41 -3.4283e-41
0001f0 41 57 00 80 72 95 1b 3d 29 cc f8 3c ab 73 1a 3d
       -3.1301e-41 0.03798432 0.030370789 0.037707966
000200 68 cb 9d 3c 58 4e f0 ba b8 50 8f 39 25 65 db bb
       0.01926203 -0.0018333895 0.00027335226 -0.006695407
000210 a3 c7 9d 3b f3 df 17 3c c9 7b 9a bb 3a 03 15 3c
       0.0048150583 0.009269702 -0.0047144634 0.009095008
000220 85 59 91 3c 6c cf 7f 3b 4e 16 18 b9 fb 93 43 3c
       0.017742882 0.0039033545 -0.00014504159 0.011937137
000230 8c 2d a2 bc ec e8 a6 bb dd 80 db bc 0c b7 bd 3c
       -0.019797109 -0.0050936844 -0.026794845 0.023158573
000240 89 73 3e 3b 6d 23 8a 3b de b5 67 3c d6 b1 dc 3c
       0.0029060564 0.004215649 0.014142482 0.026940268
000250 ad 16 09 3d c2 50 e9 3c e2 7c c8 3c b2 3a 92 3c
       0.03346889 0.028480891 0.024473611 0.017850254
000260 82 d6 3c 3d 01 65 5b 3d fe 79 f0 3b 22 30 3c 3c
       0.046103008 0.05356312 0.0073387614 0.011486085
000270 a7 d6 db 3a 9d f7 e6 3c 5d d6 df 3c fb e7 0c 3c
       0.0016772345 0.028194243 0.027323896 0.00860023
000280 14 4d d2 3b b6 c3 20 3d f6 d5 1b bc e3 b8 c0 3b
       0.00641788 0.039249144 -0.0095114615 0.005881415
000290 04 b2 9c 3c 0a 55 24 3c bb 04 0d 3d 47 b9 8c 3b
       0.019127853 0.0100300405 0.03442834 0.0042945477
0002a0 63 ba d2 3c 5b 82 c8 3c ae 8d 1e 3d 58 b6 76 3c
       0.025723642 0.02447622 0.038709335 0.015058123
0002b0 76 c1 60 3c fd 03 96 3c 81 1f c9 bc 0e 69 e7 bb
       0.013718 0.018312449 -0.024551155 -0.007062084
0002c0 31 5e 53 bc b6 b5 ab 3c 5b 6f 10 3c 3c e3 52 bb
       -0.012900875 0.02096067 0.008815612 -0.00321789
0002d0 25 8e be 3c 29 bf 25 bc 31 c8 11 3c bc b9 0b bb
       0.02326114 -0.010116377 0.008897827 -0.0021320423
0002e0 5c 0c a9 ba d7 b6 4d 3c 79 46 d0 3b 58 40 26 3b
       -0.001289736 0.012555799 0.0063560572 0.0025367942
0002f0 57 7f d6 bb 9b f2 59 3c 02 6a 06 3d 06 a4 13 3c
       -0.006545942 0.013302471 0.03281594 0.009011274
000300 b8 95 ee 3c 3b df 1e 3c ac 8f 31 bc d5 75 90 3c
       0.029124126 0.009696777 -0.010837477 0.017634312
000310 c0 67 3d bc 63 10 97 3b 77 16 62 3c c3 ab a0 bb
       -0.01156038 0.0046101077 0.013799301 -0.004903288
000320 b7 a2 d1 3c 71 df 02 3c 47 e1 45 3a 80 4c 11 3d
       0.025590284 0.007987843 0.00075485226 0.035473347
000330 de 2f ae 3c 2d f9 12 3d c4 17 aa 3c 25 23 f1 3c
       0.02126306 0.035882164 0.020763285 0.029435704
000340 21 45 2a 3d 91 3f 89 3d 0b a3 5a 3d 55 bc 80 bc
       0.041569833 0.067015775 0.053378146 -0.015714804
000350 c4 fe 1d 3d 11 92 fd 3c 22 f9 1b 3d 92 d1 d4 3c
       0.03857304 0.030953439 0.03807939 0.025978837
000360 a1 89 d3 3c 2d db e1 3c dc 9e 5a 3a 06 54 f4 bb
       0.025822463 0.027570331 0.0008339712 -0.0074563054
000370 f9 03 31 3d 0c 34 35 3d 7a 2a 29 3d 95 6e 53 3d
       0.04321668 0.04423909 0.041300274 0.05161913
000380 01 82 42 3d 62 ef 87 97 9f 90 b6 96 2e c1 f8 98
       0.047487263 -8.784599e-25 -2.9494955e-25 -6.430156e-24
000390 41 c7 a7 97 b8 64 85 98 ea 1f 8a 96 7d 5d 9d 96
       -1.0842421e-24 -3.4481394e-24 -2.2315243e-25 -2.5423717e-25
0003a0 f5 dc b2 98 da 5f 8b 96 1b 47 cb 98 66 ba 70 97
       -4.623503e-24 -2.2517152e-25 -5.254607e-24 -7.778345e-25
0003b0 da fd 78 96 1b b6 9e 97 a7 52 40 98 59 8f c5 96
       -2.0113382e-25 -1.0256481e-24 -2.4857147e-24 -3.1917532e-25
0003c0 1d 16 8c 98 34 55 12 98 1c 77 8a 98 c4 4e 04 99
       -3.621148e-24 -1.8913074e-24 -3.5792434e-24 -6.840147e-24
0003d0 3d a1 bb 96 54 08 d3 96 19 3a e3 96 05 04 fb 98
       -3.0313235e-25 -3.4094144e-25 -3.6710493e-25 -6.4886038e-24
0003e0 39 89 04 99 76 d3 e2 96 33 42 00 00 3b 45 00 00
       -6.851952e-24 -3.664572e-25 2.3748e-41 2.4835e-41
0003f0 52 6a 00 00 ea 36 00 00 b9 70 00 00 49 5b 00 00
       3.814e-41 1.97e-41 4.0437e-41 3.2747e-41

e_conv3.bias f4 [3]
000000 5b 68 2a 3d d4 a7 09 3d 68 a2 48 3d
       0.041603427 0.03360732 0.048983008

e_conv4.weight f4 [3, 6, 7, 7]
000000 a8 bd 6d 18 de 34 5e 18 eb 44 8d 16 63 6e 55 18
       3.0727284e-24 2.8719519e-24 2.2823272e-25 2.7585336e-24
000010 1d 1a 15 98 1d ef 10 17 37 1e 3b 98 f1 f6 6b 18
       -1.9270982e-24 4.6830713e-25 -2.4184438e-24 3.0497712e-24
000020 2c 56 27 18 5e e5 4c 18 41 87 4b 98 b7 be 71 18
       2.162775e-24 2.6482183e-24 -2.630542e-24 3.1244806e-24
000030 1b b1 6d 18 77 64 ce 97 18 8e 3f 98 ca 7e 73 18
       3.0720947e-24 -1.3337799e-24 -2.475791e-24 3.1471026e-24
000040 0f db 81 17 f5 a6 48 98 43 c8 b0 97 92 34 8b 17
       8.391728e-25 -2.5933686e-24 -1.1424287e-24 8.995935e-25
000050 2c 53 48 98 44 32 49 18 94 09 45 98 58 0b 05 18
       -2.5891385e-24 2.6004019e-24 -2.5466489e-24 1.7195574e-24
000060 2b 93 74 18 05 ab 3c 98 e2 3a 73 18 b5 c3 66 18
       3.1610562e-24 -2.4384773e-24 3.1436742e-24 2.982561e-24
000070 eb 9c 65 18 2e 75 4d 98 ad 04 76 18 c5 bf 55 18
       2.967678e-24 -2.655479e-24 3.1797115e-24 2.7626424e-24
000080 5a 02 d5 96 5b 9c 4c 98 26 db 6d 18 2c e3 6f 18
       -3.441349e-25 -2.6445321e-24 3.0742174e-24 3.1004718e-24
000090 e4 ac 49 98 68 f0 d5 97 c0 39 8f 17 91 8d 4c 18
       -2.6065929e-24 -1.3825489e-24 9.255737e-25 2.6437855e-24
0000a0 63 16 8d 17 75 23 c6 97 2b 56 3f 18 2c 9f df 17
       9.117563e-25 -1.2804401e-24 2.4729675e-24 1.4451218e-24
0000b0 95 2a 73 18 c1 7c 95 17 55 53 e9 17 ca e7 42 18
       3.1428512e-24 9.660392e-25 1.5078308e-24 2.5190936e-24
0000c0 92 53 40 98 de ca 00 80 74 cb 00 00 a5 a6 00 80
       -2.485761e-24 -7.2775e-41 7.2985e-41 -5.9781e-41
0000d0 9c a9 00 80 61 df 00 00 70 ba 00 00 c7 d1 00 00
       -6.0844e-41 8.0133e-41 6.6881e-41 7.5254e-41
0000e0 71 b4 00 80 00 ca 00 00 f5 03 00 80 dd 9a 00 80
       -6.473e-41 7.2464e-41 -1.42e-42 -5.5554e-41
0000f0 11 b5 00 00 f5 90 00 00 ab 04 00 80 b1 6c 00 80
       6.4954e-41 5.2001e-41 -1.675e-42 -3.8991e-41
000100 9f c9 00 00 a3 d5 00 00 14 55 00 00 64 cc 00 00
       7.2328e-41 7.6638e-41 3.052e-41 7.3322e-41
000110 f5 90 00 00 ea cc 00 00 c8 6a 00 80 10 34 00 80
       5.2001e-41 7.351e-41 -3.8306e-41 -1.8677e-41
000120 ca 9e 00 00 b6 c0 00 00 54 d9 00 00 ef 8e 00 00
       5.6963e-41 6.9132e-41 7.7963e-41 5.1275e-41
000130 7b 90 00 00 e3 7b 00 00 96 d4 00 00 42 ce 00 00
       5.183e-41 4.4442e-41 7.6261e-41 7.3991e-41
000140 d9 c4 00 00 57 da 00 00 66 81 00 00 55 c0 00 00
       7.0616e-41 7.8326e-41 4.642e-41 6.8996e-41
000150 58 d6 00 00 b3 da 00 00 3e d2 00 00 e6 58 00 00
       7.6892e-41 7.8454e-41 7.542e-41 3.1891e-41
000160 80 dc 00 00 ef d5 00 00 a1 a8 00 80 55 80 00 00
       7.91e-41 7.6745e-41 -6.0493e-41 4.6037e-41
000170 d9 0e 00 00 be cb 00 00 34 d7 00 00 bb dd 00 00
       5.326e-42 7.3089e-41 7.72e-41 7.9542e-41
000180 4b 57 00 80 2c cb 00 00 10 fd 20 bb ae 90 5f 3c
       -3.1315e-41 7.2884e-41 -0.00245649 0.013645334
000190 49 48 0d 3c b3 7c 9c ba 1a 74 a6 bc 99 3b 9c bb
       0.008623191 -0.0011939019 -0.020319033 -0.004767847
0001a0 37 20 d1 3c 16 af 17 3c a9 fb f5 3b e4 b3 cd bb
       0.025528057 0.009258052 0.007506807 -0.006277548
0001b0 8e ca 94 3c 0d f4 b4 bc df 91 e5 3b bb cc 6d bb
       0.018162992 -0.022089029 0.0070059146 -0.003628536
0001c0 83 aa 24 3d 14 57 97 bc 42 46 40 bc 97 fc 0f ba
       0.040201675 -0.01847414 -0.011735501 -0.0005492656
0001d0 a8 f2 05 3d 88 e2 24 3c d0 83 24 3c 32 25 5d bc
       0.03270212 0.010063775 0.010041192 -0.013497638
0001e0 c6 bc 97 3c 73 06 a1 3b 58 eb fc 3b c9 f6 10 3d
       0.018522631 0.004914099 0.007718485 0.035391603
0001f0 78 25 21 3c 3d 89 90 bc ea c2 c6 3c 66 e2 0f 3c
       0.009835593 -0.017643565 0.024262864 0.008782005
000200 af f2 1a 3d 54 12 ff 3b 76 4b e8 3b d3 e3 98 bc
       0.037829097 0.0077841673 0.007089074 -0.018663323
000210 e0 5d 9d bb 30 b7 48 bc a4 b1 87 bc ca dd 5b bb
       -0.0048024505 -0.012250707 -0.016564198 -0.0033548945
000220 8c ea 00 3d d0 4d f9 3c 37 d7 aa 3c 39 8c cd 3c
       0.03147368 0.030432612 0.020854576 0.025091277
000230 74 7c 8d 3c 8a 28 87 3a c6 47 56 bc e9 5c 03 3c
       0.017271258 0.0010311764 -0.013078636 0.008017757
000240 2a cd c6 3c 06 65 7c bc 95 ba d0 3b 0e be 5a 3c
       0.024267752 -0.015404945 0.0063698986 0.013350977
000250 5e 18 80 3b 46 e1 7c 3c a2 ef 0e 3d 3c 50 72 3d
       0.003909155 0.015434569 0.0348965 0.05915855
000260 5a bb 22 3d 6f 1c fe 3c e8 5c 08 3d b7 2d b8 3c
       0.039729454 0.031019418 0.033291727 0.022482736
000270 28 49 bd 3b 4b 8a a1 3c ba 21 ca 3c ac 73 4f 3c
       0.005776543 0.019719264 0.024674285 0.012661856
000280 b9 e8 13 3d 7f 76 45 3d 7b 24 14 3c e1 b1 92 bb
       0.036110613 0.04820871 0.009041901 -0.004476771
000290 92 ee 3c 3d 78 93 24 3b 1f 59 1b 3d e2 8f d0 3c
       0.046125956 0.0025112312 0.03792679 0.025459234
0002a0 a0 90 9b 3c 03 a6 e3 3c cd ab 66 3c 4c 16 b4 3c
       0.018989861 0.027789121 0.014079046 0.021983288
0002b0 50 13 81 3c bf 1c fb 3c cc fd a5 3c 0a 5a 57 3b
       0.01575628 0.030653356 0.020262621 0.0032860064
0002c0 77 40 a1 bb 9d 6d ad 3c 61 a4 d4 3b b3 27 40 bb
       -0.004921015 0.021170432 0.006489322 -0.0029320538
0002d0 33 f7 35 3a 95 50 04 3d 46 ec 95 3c e4 c2 5d 3b
       0.00069414376 0.03230341 0.01830114 0.0033838088
0002e0 28 ef 99 3c ba 27 05 3c 2a ea 17 3d c3 fe f3 3c
       0.018790796 0.008127147 0.03708855 0.029784566
0002f0 3a 6d 2e 3d 9f 10 72 3c 95 c7 45 3b d9 e9 81 3c
       0.042584635 0.014774471 0.0030178775 0.015858578
000300 c9 c6 24 3d 0e ed 19 bc aa 5a 03 3d db 30 ce 3c
       0.04022864 -0.009394897 0.032068886 0.02516978
000310 52 ec 1e 3c 7e cf 25 3c df 79 f7 3c f8 b1 26 3b
       0.009699898 0.010120271 0.03020948 0.0025435667
000320 d5 93 55 3d c0 34 4f 3d 96 e2 6c 3c be 73 9a bc
       0.052142937 0.050587416 0.014458319 -0.018854018
000330 89 ea f3 3c 76 4e 1d 3d 46 ff d2 3c c6 5f 8a 3c
       0.029774921 0.038404904 0.02575649 0.016891371
000340 ba 36 9e 3c ca 0a d2 3c 01 ad 35 3c 12 b4 6f 3c
       0.019313205 0.02563991 0.011088611 0.014630334
000350 b1 a0 0f 3d 4a 30 52 3d 3d ee c1 3c bf 7b b5 3c
       0.035065357 0.051315583 0.023673171 0.022153733
000360 67 ed 93 bc a1 24 fe bb a1 f7 b2 3b aa 09 b5 3c
       -0.018057538 -0.0077558313 0.0054616486 0.022099335
000370 2a e7 02 3d 71 9d 29 3d f7 5b fe b8 cf 02 bc 3c
       0.031958736 0.041409913 -0.000121287936 0.022950558
000380 f0 3a de 3b 21 bd 6d 3d 89 4a 6c 3b 03 3b 28 bc
       0.0067819282 0.058041696 0.0036055169 -0.010267976
000390 66 b7 7d ba c2 24 02 3d 66 db d0 3c ba 45 31 3c
       -0.00096785126 0.031773336 0.025495242 0.010819847
0003a0 ff e9 f7 3c 02 0a da 3b d8 73 7e bc ab 78 16 bc
       0.030262945 0.006654025 -0.015530549 -0.009184043
0003b0 96 72 59 3d 40 09 13 3d 02 15 06 bc cf a3 b8 bb
       0.053087793 0.035897493 -0.00818372 -0.005634762
0003c0 4f df 02 3d 58 90 61 3c d6 7b 3c bb 9a 0a 14 3c
       0.031951245 0.013767324 -0.0028760335 0.009035731
0003d0 60 67 39 3c 70 e1 fe bc 95 8b 9a 3c a8 be 8d 3b
       0.01131615 -0.031113356 0.018865386 0.0043257065
0003e0 87 20 b5 3c 44 70 38 3d 60 aa dc 3c 96 b1 af bc
       0.022110237 0.04502894 0.02693671 -0.021446984
0003f0 40 c9 17 3d ec 1f 26 3d 35 ef 27 bc 6c 34 1d 3c
       0.03705716 0.040557787 -0.0102499025 0.009595018

e_conv4.bias f4 [3]
000000 45 d5 46 bc 81 87 8c b6 b3 27 e1 3b
       -0.012135808 -4.1881e-06 0.0068711876

e_conv5.weight f4 [3, 12, 3, 3]
000000 e7 18 52 3c 27 58 a4 3c 81 3f 1b 3d 83 87 b5 3d
       0.01282332 0.020061566 0.03790236 0.088637374
000010 ca 87 db 3b 87 41 2e 3d db 72 84 ba b1 bc 06 3d
       0.006699537 0.04254296 -0.001010503 0.032894794
000020 4d a8 3a 3d 04 8d 6f 3c 32 f2 27 3d 62 c7 90 3c
       0.04557066 0.014621023 0.04100246 0.017673198
000030 47 54 87 3c 5d 11 17 3c 79 55 94 3c f8 e0 f8 39
       0.016519679 0.009220448 0.018107163 0.0004746986
000040 43 cc 0a bc e2 4f 95 bc b6 54 38 3d b6 9d 35 3d
       -0.008471551 -0.018226568 0.04500266 0.044339858
000050 e1 45 55 3c f8 0f 94 3c 7e 6b ed 3c 47 24 08 bb
       0.013017149 0.01807402 0.02898192 -0.0020773576
000060 49 7e e0 3b a3 a3 e3 39 a8 28 8c 3d 84 50 99 18
       0.006850992 0.00043418733 0.06843692 3.9630873e-24
000070 bf 7c 97 18 05 fe ef 98 ba 1e ed 18 f9 b5 a5 98
       3.9158547e-24 -6.2036546e-24 6.129409e-24 -4.2835246e-24
000080 94 fa ad 98 df 8e f2 18 b9 94 cc 18 bc 14 f8 18
       -4.497247e-24 6.2699797e-24 5.2882936e-24 6.4127434e-24
000090 0b 75 00 00 a2 88 00 80 57 b8 00 00 e0 46 00 80
       4.1987e-41 -4.9015e-41 6.6129e-41 -2.5425e-41
0000a0 5d 81 00 00 6f c4 00 00 12 b5 00 00 ee a5 00 00
       4.6407e-41 7.0467e-41 6.4956e-41 5.9524e-41
0000b0 40 c3 00 00 d7 f9 7a bc ed d4 c1 bc 7f ec 1d 3d
       7.0043e-41 -0.0153183555 -0.023661101 0.03855562
0000c0 59 cb b5 3b 0f 33 d9 bc 85 16 13 bc 77 9d 4d 3b
       0.0055479226 -0.026513604 -0.008977537 0.0031374374
0000d0 83 e0 25 3d 4a 90 65 3b cd d9 9e 3c 58 60 1d 3d
       0.040497314 0.003502863 0.019390965 0.03842196
0000e0 89 2c af b9 c8 86 5b 3c 2b 2a 4d 3d e2 09 05 3d
       -0.00033411782 0.013398834 0.050089043 0.032480128
0000f0 95 92 b5 3c b8 af a9 3c 4f a7 d9 3c ad 6f 38 3d
       0.022164622 0.020713672 0.026569037 0.045028377
000100 73 32 0f 3d 2c f3 7f 3b 6e 8c d3 3b ae 8f f0 bc
       0.03496022 0.0039054854 0.0064559495 -0.029365387
000110 4f 14 6a 3c 1b d5 23 3c 03 c8 21 3d 38 bd dd 3b
       0.0142870685 0.009999539 0.039497387 0.0067669414
000120 80 04 09 bb 8e 10 d3 3a 42 52 ee bc a0 61 67 3d
       -0.0020907223 0.0016102956 -0.029091958 0.056489587
000130 1b 4f c4 3c c7 b6 08 3d 07 16 b6 3b d5 d6 34 3c
       0.023963502 0.033377435 0.005556825 0.011037548
000140 a4 3e 84 3d a9 75 27 3c 48 2e 1b 3d 5b 0c eb bc
       0.0645726 0.010220923 0.037885934 -0.028692415
000150 ee 98 e6 3c a4 07 45 3d 13 3d 2d 3d 25 b6 e2 bc
       0.028149094 0.04810299 0.042294573 -0.027674744
000160 85 f0 16 3b 61 86 1d 3d ec 5e b0 b8 50 32 6c b9
       0.0023031544 0.03845823 -8.4100146e-05 -0.00022525457
000170 52 b7 98 b8 21 2b 87 37 08 91 d0 b8 fa a6 80 b9
       -7.282071e-05 1.6113338e-05 -9.945227e-05 -0.0002453847
000180 3b 6a ff 37 90 4e 06 ba 75 96 cf b8 c7 9c f1 3b
       3.0447836e-05 -0.0005123401 -9.898554e-05 0.0073734256
000190 5a 71 b3 3a 42 1f 17 3d 72 83 7c 3b 71 56 94 3c
       0.0013690398 0.036895044 0.0038530496 0.018107625
0001a0 da 74 cd 3c 77 41 83 3c ae 6b 79 3b 18 86 01 b9
       0.025080133 0.016022427 0.0038058567 -0.00012352352
0001b0 52 07 98 3c 24 20 4b 3d cb 33 1f 3c 21 9f 3e bb
       0.018558178 0.0495912 0.009716938 -0.0029086547
0001c0 60 6d d8 3c d9 46 2d 3c 4d f1 2d 3d 8d 45 5c 3c
       0.026419342 0.010575973 0.04246645 0.013444317
0001d0 4d 44 5f 3d 97 39 0d bd d8 70 00 3b f0 98 c3 3b
       0.054508496 -0.03447875 0.001959851 0.0059691593
0001e0 5e b8 87 bb 5a 8b e1 ba f7 aa 6c 3c e0 51 54 3c
       -0.0041418513 -0.0017207668 0.014445058 0.012958974
0001f0 e2 13 4b bc 53 03 6f 3c 04 ea 2c 3c e9 65 0a 3d
       -0.012394877 0.014588195 0.010553841 0.033788595
000200 b8 ae 37 3d fd d9 73 3d 01 02 dc bc 49 1a 7d 3c
       0.04484436 0.05953406 -0.026856424 0.015448161
000210 9b 5a de 3c d6 91 17 3c 39 78 e9 3c 2a f1 b2 17
       0.027142813 0.009251079 0.02849971 1.1563859e-24
000220 b9 a1 97 98 4b e4 b3 17 8c 9a 6c 98 ec e3 96 98
       -3.9195883e-24 1.1625233e-24 -3.0580311e-24 -3.9004233e-24
000230 08 47 bb 17 02 de 62 17 da 71 56 17 bb c5 b7 17
       1.2102523e-24 7.330475e-25 6.929083e-25 1.1876012e-24
000240 e5 c1 00 00 e5 bc 00 00 cf bc 00 00 72 c2 00 00
       6.9556e-41 6.7763e-41 6.7732e-41 6.9754e-41
000250 59 c8 00 00 fd af 00 00 27 c4 00 00 e1 92 00 00
       7.1871e-41 6.3133e-41 7.0366e-41 5.269e-41
000260 d2 c6 00 00 fb ae e5 3c 04 2e cb 3a 8c ce 21 bd
       7.1323e-41 0.028037539 0.0015501385 -0.03950362
000270 54 7d b7 bc 8b 88 1e 3d 7f 47 bb 3c 84 64 92 3c
       -0.022398628 0.038704436 0.02286124 0.017870195
000280 26 5f 10 bc 01 22 cd bc 07 f2 05 bc 1c 58 c1 3c
       -0.008811748 -0.025040628 -0.00817538 0.023601584
000290 0e 20 9b 3b 38 5b f6 3c 41 83 82 bc b2 9b f3 3c
       0.004734046 0.030072793 -0.015931727 0.029737327
0002a0 61 e9 26 3c b6 e8 d1 3c 47 ee 2a bc ef c7 ef bb
       0.010187478 0.02562366 -0.010432786 -0.007317535
0002b0 e7 d4 06 3c 07 2a 0d bc 71 ed 84 3b 81 1b 5b 3c
       0.008229471 -0.008615977 0.0040566255 0.013373257
0002c0 f4 7f d2 bb 62 f7 e3 3b 4e df 0c 3d c3 be 61 3b
       -0.0064239446 0.0069569806 0.034392647 0.0034445978
0002d0 bb 93 43 bc 3f 5c f6 3c f1 66 89 3c 6b 46 ed 3c
       -0.011937077 0.030073283 0.01677272 0.028964242
0002e0 65 62 b1 bb c5 31 ba 3c e5 49 59 bb 96 72 4f 3d
       -0.005413341 0.02272881 -0.0033155617 0.050646387
0002f0 0e 30 78 3a 79 dc 3a 3d 9c 61 2b 3c c0 8a be 3c
       0.000946761 0.045620415 0.010460284 0.02325952
000300 0d b5 a1 bb c4 b8 40 3c 20 29 09 3d e9 32 36 3d
       -0.004934913 0.011762802 0.033486485 0.044482145
000310 52 1d df 3c 03 38 c6 3a df c2 61 b9 6f c9 5d b9
       0.02723566 0.0015122894 -0.00021530267 -0.00021151242
000320 5a 8e f8 b8 72 23 5f b9 99 41 8d ba 74 1d 2f b9
       -0.000118520766 -0.00021280142 -0.0010776996 -0.00016700273
000330 1e a1 58 b9 0e e6 5e b9 8c 14 6a b9 37 54 ab 3c
       -0.00020659386 -0.00021257272 -0.00022323633 0.02091418
000340 80 b0 e6 3c 81 d9 2a bc d7 f8 d0 3c 8a dd f4 bb
       0.028160334 -0.010427834 0.025509281 -0.0074726986
000350 8f ca 09 3d fb 7f e0 3c ba dc 14 3d ff d2 08 3d
       0.03364044 0.027404776 0.036343314 0.033404347
000360 6b bb ad 3c 2f 62 bb 3c f9 15 b0 3c 54 3b b3 3c
       0.021207532 0.022873966 0.021494852 0.021878876
000370 9e bb c2 3c cb b2 b5 3c a6 3f ac 3c 44 e7 b9 3c
       0.023771103 0.022179982 0.021026444 0.022693284
000380 cb c5 ae 3c 2a ef 5b 3c e9 82 6a 3c fb 3d 5e 3c
       0.02133455 0.01342372 0.014313438 0.013564582
000390 39 d9 61 3c 48 78 72 3c a2 49 64 3c 7f 7b 5a 3c
       0.0137847 0.014799185 0.013933571 0.013335108
0003a0 6b 11 69 3c 9d fe 5c 3c 4e 79 95 3c 93 85 a0 3c
       0.014225344 0.013488439 0.01824632 0.019594943
0003b0 a8 51 97 3c b3 ff 99 3c 54 8b a6 3c d1 ef 9b 3c
       0.018471554 0.018798685 0.020330109 0.019035252
0003c0 3e 67 94 3c 02 74 9f 3c 9a 63 96 3c ef 0c f5 16
       0.018115636 0.019464497 0.01835804 3.9590047e-25
0003d0 25 74 b2 96 bc c5 fc 96 1b a2 c0 98 52 b3 fe 97
       -2.8830748e-25 -4.0837584e-25 -4.979452e-24 -1.6459632e-24
0003e0 81 55 62 98 ea c9 96 98 85 53 84 98 93 4e 40 97
       -2.9252984e-24 -3.8977972e-24 -3.4205533e-24 -6.213772e-25
0003f0 4b 43 00 00 22 9e 00 00 72 98 00 00 23 08 00 80
       2.414e-41 5.6727e-41 5.4687e-41 -2.919e-42

e_conv5.bias f4 [3]
000000 8e 8f e6 3c 65 f7 35 3c 98 91 da 3b
       0.028144624 0.011106347 0.006670188
